models/hefNet_pretrained100.pkl (torch, 260925 bytes, 26 tensors)

conv1.weight f4 [256, 3, 3, 3]
00000000: 50d2 403b 3d87 023d 9f72 b2bc d6e2 353c
00000010: 1a18 463c 672b e1bc 3bfa 263c 81ac cbbc
00000020: ced1 1abd a2c9 843c f3d9 3dbd 5230 f53b
00000030: 1fc4 5e3d d121 2d3d 0511 c53c a978 5e3d
00000040: 3b13 0dbd 0921 9b3c 2e6d 543d 47a8 0d3d
00000050: 8585 e53c d840 193c 0058 0ebd 5eb1 30bd
00000060: 7828 01b9 9aa0 0d3d 61b2 02bd cc51 41bd
00000070: fbf1 7e3c 42f5 173d 2f1f b93d 1ec8 d2bd
00000080: 4486 813c 7759 d8bd f4f3 b03d a95e a73c
00000090: 80b0 d83c f9ba c53c 2b65 48bd 031a 143e
000000a0: fd3d debd e83b 66bd a147 96bd 8f83 bd3d
000000b0: a756 6abc 543f d73c 5913 da3b 9977 a4bc
000000c0: aef3 a13d e2c2 dfbd 5c39 223d 6733 15be
000000d0: 597d b73d 3104 4b3d f6dc 393d a4ca 49bb
000000e0: 0fa4 ebbc 9095 4c3d d904 0f3d 29b9 9bbb
000000f0: 391f 7d38 2e79 473c 186e 60bd 194b 37bc
00000100: a229 333d 2fa9 b3bb c52a 9a3c 64b4 043d
00000110: 4ae6 b9bc e1d1 c43c f196 2c3d b323 0cbc
00000120: f77b 2b3a 9b58 103d a41c 323d 2eb1 98bc
00000130: 8323 193d 0771 153c 8bd3 863c 702a e03c
00000140: 3e04 8f3c 8103 ab3c 586f 223d 821e b23c
00000150: 6607 433d f540 4b3c 414f fdbb 577a 6f3b
00000160: 5fa1 073d aa9a 75bd 623b 94bc 6516 c23b
00000170: 8064 03bc 7f1f 463d cb4a 17bd 09e3 f1bc
00000180: 5782 303c 5edc 42bd bebd a9bc b1f7 b43b
00000190: ce37 2e3c db95 27bd ddd7 1a3c bc41 a63c
000001a0: a60d c2bc c54d 86bb bf52 b23c ca0f 22bd
000001b0: a420 5f3d 1fad 083a 56d4 e7bc f4b3 473c
000001c0: af47 14bd 8837 4c3d 9715 9cbc 1560 3fbd
000001d0: 2341 6bbd 8a20 513c dc57 b93b 4bf6 7a3c
000001e0: 4940 9ebc f317 ae3c 4966 46bd 60e3 0f3d
000001f0: 00ae 19bb 14f4 113c 8c6c 2e3d f0e6 fcbc
00000200: 8598 fabc 833d e83c a6aa 3fbd 910b e3bc
00000210: 0685 8438 23ac 11bc 850b 6ebb 7850 20bd
00000220: aae7 12bd 9273 8abd 94bf 28bd 8ad7 dcbc
00000230: 5ca6 c53c cd44 ce3c 1b37 4e3d c846 4f3d
00000240: ee77 753c d8f3 193d cf26 0ebc 6a6e 12bd
00000250: 1250 243c 38b1 ccba 320a 0dbd 0218 4f3d
00000260: 44e8 06bd 5f5a dd3c baf2 3b3c 7c20 4fbb
00000270: c1a3 203d 1832 303d 5d2e 223d 7b09 0d3c
00000280: 01bf 543c e95e 003d 442e 9a3d 7a7c fa3b
00000290: e7e0 75bd dcc9 633c 9e58 15bd 5ced 123a
000002a0: 9225 ffbb 431b d0bc 3383 c7ba a953 493d
000002b0: 49d0 9f3c 2d62 b6bc 20bc 47bc 251d c33a
000002c0: e429 01bd 5194 ae3c 9738 c93c 6035 55bd
000002d0: 6dbb bf37 bfca 483d 284b 453d 807e 9abd
000002e0: f0f4 7cbc 8791 70bc eb69 bb3c 1446 febb
000002f0: 94d3 623d a202 34bc 5257 183d 201d fa3b
00000300: 3039 aabc 0ecf 3cbc abf8 013d ac7e d63a
00000310: 5efa 40bd fe8d 833c 971c 193b 4032 503c
00000320: d0e9 283d 59ea 2fbc ed9d ae3c dda8 3b3d
00000330: 8812 f63c 86ed 413d 29f4 63bb 8f87 8d3c
00000340: c1e7 333d 2fef f93c 850c 2e3d 4544 b4bc
00000350: 7488 0c3d e6a4 d4bb d0ca 9cbc 667e 163b
00000360: e8de d53c 0354 0bbd 73f4 923b 43ec 663d
00000370: a84f d6bb 1877 e4bc e532 123d b3e7 9ebc
00000380: 1662 2abd 8e65 8abd eac8 253c 00d9 9c3d
00000390: 0d9a d03c e673 81bc f1c6 033c e9a5 21ba
000003a0: e042 d9bc 04b0 4ebc 6091 e8bd 0c38 b4bc
000003b0: 07e9 e33d fcbb 3fbc 79bd babc a43b 80bb
000003c0: ba6c 95bc 6322 563d 0a4d a53c 5521 56bd
000003d0: 62cb dfba 4bea 183d d624 463d 008d dd3c
000003e0: 89ca 233d 71db 72bd 7375 24bd ea3d cb3b
000003f0: 4587 ba3b 478c bfbc 8add 31bd b235 483c
0.002942223 0.031867255 -0.021783171 0.011101445 0.012090707 -0.027486516 0.0101914955 -0.02486253
-0.03779774 0.016209427 -0.04635043 0.007482567 0.054386254 0.042268578 0.024055967 0.05431429
-0.034442168 0.01893665 0.051861934 0.03458431 0.028017769 0.009353839 -0.034751892 -0.0431379
-0.00012317474 0.03457699 -0.031908397 -0.04719715 0.015560622 0.03709913 0.09039151 -0.102920756
0.015811093 -0.10563939 0.0864028 0.02043088 0.02645135 0.024137007 -0.048924606 0.14463048
-0.10851667 -0.056209475 -0.07337881 0.092536084 -0.014302886 0.026275314 0.0066551385 -0.02007656
0.07907806 -0.10925843 0.039605483 -0.1457039 0.08959455 0.049564544 0.04537674 -0.003079095
-0.028764753 0.04994732 0.034916732 -0.0047522974 6.034898e-05 0.012174888 -0.054792494 -0.011187338
0.043740876 -0.0054828147 0.018819222 0.032398596 -0.022692818 0.02402586 0.042136136 -0.008553433
0.00065416045 0.03524075 0.043484345 -0.018639173 0.037387382 0.009121186 0.016458293 0.027363986
0.017458078 0.020875694 0.039656967 0.021743063 0.047614478 0.012405624 -0.007730395 0.0036541426
0.03311288 -0.059961952 -0.018094722 0.00592308 -0.008019567 0.04836988 -0.036936563 -0.029527204
0.010773263 -0.04757344 -0.020720359 0.005522691 0.010633422 -0.040914398 0.00945088 0.020295016
-0.023688149 -0.0040986263 0.021767972 -0.03956584 0.054474488 0.00052137853 -0.028299492 0.0121889
-0.036201175 0.049857646 -0.019053264 -0.04672249 -0.057435166 0.012764106 0.0056562256 0.01531751
-0.019317763 0.021251654 -0.04843739 0.03512895 -0.002344966 0.00890829 0.042583987 -0.030871838
-0.030590305 0.028349644 -0.046793602 -0.027715476 6.319028e-05 -0.008891138 -0.0036322784 -0.03913924
-0.035865463 -0.067603245 -0.04119833 -0.026958246 0.024127178 0.025179291 0.05034552 0.05060461
0.014982207 0.037586063 -0.008676245 -0.03574983 0.010028856 -0.001561678 -0.03443355 0.050560005
-0.03293635 0.027020631 0.011471445 -0.0031605056 0.039218668 0.043016523 0.039594997 0.008608217
0.012984992 0.031340513 0.07528356 0.0076442333 -0.060028937 0.0139031075 -0.036461465 0.00056048273
-0.007786461 -0.025403624 -0.0015221596 0.04915205 0.019508498 -0.02226361 -0.012190849 0.0014886005
-0.03153409 0.021310957 0.024563117 -0.052052855 2.2856251e-05 0.04902148 0.048167378 -0.07543659
-0.015439257 -0.014683134 0.022877654 -0.007759819 0.055377558 -0.010986956 0.03719265 0.0076328665
-0.020779222 -0.011523975 0.03173129 0.0016364655 -0.04711377 0.016058918 0.0023362988 0.012707293
0.041238606 -0.010737025 0.02131554 0.045815337 0.030038133 0.04734566 -0.0034782982 0.017276553
0.04392219 0.03050956 0.04249241 -0.02200521 0.03430982 -0.006489384 -0.019139677 0.0022963523
0.026107267 -0.034015667 0.004484707 0.05637766 -0.0065402575 -0.02788882 0.035693068 -0.019397592
-0.04159745 -0.06757651 0.010118702 0.07658577 0.025464082 -0.015802335 0.008043037 -0.0006166385
-0.026521146 -0.012615208 -0.11355853 -0.021999381 0.11128431 -0.011702534 -0.022795426 -0.0039133597
-0.018240321 0.052278887 0.020178337 -0.05227788 -0.0017074163 0.037332814 0.048374973 0.027044773
0.039988074 -0.059291307 -0.04015107 0.006202449 0.005692395 -0.02338232 -0.043424167 0.012219833

conv1.bias f4 [256]
00000000: fba6 2dbc da44 193e 4171 633d f181 9a3d
00000010: 9d50 08be 1753 c4bd c6b1 2f3e b34e 16be
00000020: cbad c43d b8e9 d8bd c4ed f93d 16e3 1ebd
00000030: ca3c 273e 1cc4 d83c 8363 253e 110d c63d
00000040: 4dd0 e1bd 9502 98bd e8bd a3bd a281 e23d
00000050: f824 383e 308e ce3d 1642 94bd 0458 09be
00000060: 1e8c 193e 9728 1b3e f7c0 2fbe 31d5 593d
00000070: 75de a7bd 5788 7a3c 9d64 fabd 2cd1 13be
00000080: 324c 21be 02a8 a0b9 17d2 3cbc 531c 3bbd
00000090: d7f9 02bd 9cec 053e 6b95 d3bb b867 1cbe
000000a0: 73d6 c8bd cd34 513c 4231 3dbe 183d c9bd
000000b0: 7529 3cbd fc56 d73c 455d 1dbe e307 99bc
000000c0: 6d0e e5bd d697 fd3c d171 1c3e 504d e03d
000000d0: 7c30 163d eccc 25be 7c95 e93d 0e47 2ebe
000000e0: 7ba0 8dbd 7987 0dbe 4086 313e 7b9d 39be
000000f0: 6ec0 493d 4431 273e ef01 c53d 62b7 983d
00000100: a202 123e 31b4 f23d 4f15 11bd 0d09 c03c
00000110: 0865 3fbe 75fa b9bd 16aa c6bd a9f2 833d
00000120: 394c d8bd 576a d7bd 8d75 a2bd a416 73bd
00000130: 90b4 00be dae5 51bd aa0b 21be 8e96 8cbd
00000140: 631f 393e 8974 45bd ffda 3cbe 28f4 0dbe
00000150: 7c40 8c3c b3cf f23b 1acf 34bd ecba 20be
00000160: 4776 c03d 4f4d f9bd a937 b5bd 9ddb 1cbe
00000170: 7570 ce3d 2969 af3c ffcd eabd e441 623d
00000180: 9a42 09bb 294e 093c 6ee9 c7bd f656 213e
00000190: 52e6 c23d cc4e 0dbd 6ad5 8abb 743b 193e
000001a0: 44a7 9f3c 171f 0abe eafe 35be 27fc b23d
000001b0: c2f3 3cbe ce9e 7bbd 09bf 223e fabe 5cbb
000001c0: 2647 633d a664 b43d 8825 9dbd ba4f 3e3e
000001d0: 36fb a4bd e72d 183e 5c6f ec3c 2c95 e9bc
000001e0: aa52 243e af83 f6bd 1c43 d53c 40ad d43d
000001f0: e582 73bd 4b1b a73c 975e a63d 2106 7b3d
00000200: dd1e 0d3e b7f1 3dbe a5c3 233d c878 ebbd
00000210: 8264 263e 4f08 883d b7fc 4bbd 1695 3c3b
00000220: 6a95 2abe 13d2 41bc d12e 093e d4d0 11bd
00000230: b62f a13c 4c5d 23be beca d7ba 7e8a 27be
00000240: b981 debd 928e e1bd 1209 343e 2b6e 1b3e
00000250: 454b 16be e099 6e3d 9226 b53d f0b2 2b3e
00000260: d188 543d ff5f 2e3e 8f7e e2bd 8dbd f6bd
00000270: 4d1e b03b f8b9 ac3d 470b b83b 2842 c63d
00000280: 6f6c 0cbd 6d45 13bd 3e99 2a3e d214 013d
00000290: c982 27bd 6456 a03d dbef 823d 7183 ad3d
000002a0: 2bce 4cbd c745 043e caca f7bd 4589 1f3e
000002b0: 35a6 113e 55d5 8a3d 433c e63b 2f32 e53d
000002c0: 598b 36bb c3e1 233d 6a64 bdbd 83a5 f9bd
000002d0: 4d13 233e a806 3fbe 69ae 1bbe 3e4a d53d
000002e0: 30b2 533c f5b3 c23d 54c3 353e 37d0 293e
000002f0: 3106 e03d 4e76 09bd 7c9c debc 5688 a8bc
00000300: 48da 40be 24ff 22be 32c6 12bc 2e94 fb3c
00000310: e245 573d 7bf5 0bbe 181d a9bd 4c9b 7f3d
00000320: 73c0 13bd cee5 993d 7021 d23d 264e 463d
00000330: 5f14 ddbc cdfd 3f3e 2758 a73c 1d9f 19be
00000340: 9496 f2bd 2be9 b83a 38a1 bbbd fc1f eebd
00000350: 3348 3c3e 9c4b 04be 5d89 133d 7a2b 04be
00000360: 6c02 0e3e 4ba3 d7bd 65a4 103e d6c2 dc3d
00000370: b789 8abc 2f0a 693d 96a4 c5bd b593 a4bd
00000380: 70a3 243e bb6d 753d ba97 833d 41cb ea3c
00000390: 9abc 0abe 53ac a13c 7109 5abd 2ac0 ddbd
000003a0: 8601 18be 5ba4 8fbd 7548 e83d 8bd0 1a3d
000003b0: 11ec 14be 7c80 3fbd 9db6 37be 6aac e43d
000003c0: 6383 563d 5f85 ca3d 8cf6 23be b224 a2bb
000003d0: 1387 38be 6fb8 00be f77f f5bd 6b60 353e
000003e0: de89 13bd 9bf5 2e3e 868c 2dbb 300f b13d
000003f0: dcf8 663d 654a 043e 2fb8 5a3d 7225 dbbc
-0.010598893 0.14967671 0.05552793 0.075443156 -0.13312002 -0.09586161 0.17157659 -0.14678459
0.09603461 -0.10591453 0.12203553 -0.038790785 0.16331783 0.0264607 0.16151242 0.09670461
-0.11026058 -0.074223675 -0.07995206 0.11059882 0.17982852 0.10085714 -0.072391674 -0.13412482
0.14994857 0.15152203 -0.17163454 0.05318183 -0.08196727 0.015291295 -0.12226222 -0.14435261
-0.15751722 -0.00030642754 -0.011524699 -0.04568131 -0.031976547 0.1307854 -0.006457021 -0.1527394
-0.09806528 0.012768936 -0.18475822 -0.09826106 -0.045937974 0.026286595 -0.15367611 -0.018680518
-0.11184392 0.03095619 0.15277793 0.10952246 0.036667332 -0.16191453 0.11405465 -0.17019293
-0.06915375 -0.1382121 0.17336369 -0.1812648 0.04925578 0.16327387 0.096195094 0.074568525
0.14258817 0.11850775 -0.035420712 0.023441816 -0.18690884 -0.09080974 -0.0970041 0.06442768
-0.10561413 -0.105183296 -0.07932577 -0.059347764 -0.12568879 -0.051244594 -0.15727106 -0.068646535
0.1807838 -0.04820684 -0.18442915 -0.1386267 0.017120592 0.0074100136 -0.04414282 -0.15696305
0.093975596 -0.121729486 -0.08848507 -0.15318151 0.10080043 0.021412449 -0.11465072 0.05523862
-0.0020944239 0.008380451 -0.0976132 0.15755829 0.09516586 -0.034498975 -0.0042368667 0.14964086
0.019488938 -0.13488422 -0.17773023 0.087395005 -0.18452361 -0.061430745 0.15893187 -0.0033683167
0.055487774 0.0880826 -0.07673174 0.18585101 -0.08055727 0.1486126 0.028861694 -0.028513514
0.16047159 -0.120368354 0.026032977 0.10384607 -0.059451003 0.020398756 0.0812351 0.06128514
0.13781305 -0.18549238 0.039981503 -0.114976466 0.16249278 0.0664221 -0.049801555 0.0028775386
-0.1665856 -0.011829871 0.13396765 -0.035599545 0.01967607 -0.15953559 -0.001646362 -0.16361424
-0.108645864 -0.11013521 0.17581585 0.15178744 -0.1467715 0.058252215 0.08845247 0.16767478
0.05188829 0.17028807 -0.110592954 -0.12047873 0.005374706 0.08433908 0.0056165787 0.09680587
-0.034283098 -0.03595488 0.1666002 0.031513996 -0.04089621 0.07828978 0.06393405 0.08472336
-0.050001305 0.12917243 -0.12099226 0.15579708 0.14223559 0.06778971 0.0070262267 0.111912124
-0.0027854054 0.040010225 -0.09247668 -0.12189772 0.15925331 -0.18654883 -0.15203251 0.10414551
0.012920901 0.0950698 0.17750293 0.16583334 0.10938681 -0.03356009 -0.027174227 -0.020572823
-0.18833268 -0.15917641 -0.008958386 0.030710306 0.05255688 -0.13667862 -0.08257502 0.062403962
-0.036072206 0.07514535 0.10260284 0.048414372 -0.026987253 0.18749161 0.020427777 -0.15002103
-0.11845127 0.0014107575 -0.091616094 -0.11627194 0.18386917 -0.12919468 0.03601967 -0.1290721
0.13868111 -0.105291925 0.14125212 0.107793495 -0.01691137 0.056894477 -0.09650533 -0.080359854
0.16077971 0.0599191 0.06425424 0.028661372 -0.13548508 0.01973549 -0.05323166 -0.10827668
-0.14844331 -0.0701377 0.11341945 0.03779654 -0.14543177 -0.04675339 -0.17940755 0.11165698
0.052371394 0.0988872 -0.16012019 -0.004948222 -0.18020277 -0.12570356 -0.11987298 0.17712562
-0.036020152 0.17085879 -0.0026481464 0.08645475 0.056389675 0.12919004 0.053398307 -0.026751254

bn1.weight f4 [256]
00000000: dcb3 793f dcaa 7e3f 3cbe 793f 30c6 7a3f
00000010: c2ee 7a3f 3c94 793f d178 7a3f 01bb 793f
00000020: cfe1 793f 48f7 7b3f 90c0 783f 75d6 7a3f
00000030: 46f3 7a3f d623 7a3f 8923 7f3f aced 7a3f
00000040: ca57 793f af8d 7a3f 49e7 7c3f 8f4a 7b3f
00000050: 58a0 7b3f 744b 7b3f c4dc 793f 5255 803f
00000060: 6528 7b3f fa15 7c3f deda 793f 0ff6 7a3f
00000070: 7dd6 7a3f a1b9 793f 9dac 7a3f c97d 793f
00000080: 11f0 783f be9c 7a3f ffbb 793f 12b0 7f3f
00000090: 9f13 7d3f 80df 7b3f 72c1 773f fdd9 7b3f
000000a0: cb05 7e3f 52a0 7c3f 3fd3 7b3f 560e 803f
000000b0: 773c 7a3f c1ab 793f d02f 7b3f 24d8 793f
000000c0: ede5 783f 8ca6 783f e9f3 783f f095 7e3f
000000d0: 0de0 7b3f a306 7b3f 1fe6 783f c276 7c3f
000000e0: 1bb8 783f 06e5 7b3f 50c3 783f d24c 7f3f
000000f0: 6e6e 783f 31dc 783f c8fb 793f 2cc3 793f
00000100: 7ccb 793f 102d 793f d74d 7a3f f799 7c3f
00000110: 3733 7a3f 2015 7e3f b281 7b3f 4389 7b3f
00000120: 690c 7e3f dc89 7b3f 3670 7a3f ac44 7a3f
00000130: 2038 7a3f ccde 7b3f d4fe 793f a94f 7a3f
00000140: 80db 7a3f f793 7d3f 876a 7a3f 7660 7c3f
00000150: a4fc 7a3f b0cd 7a3f 6ab3 7a3f 3562 793f
00000160: 0480 7a3f edfe 7a3f fcb5 783f 0445 7a3f
00000170: 267b 7b3f 7609 7c3f 2d88 7c3f 058b 793f
00000180: 105b 7b3f 29a0 793f d7e9 783f 6943 7d3f
00000190: 6938 7b3f 5b2d 7e3f bae9 7a3f ede2 793f
000001a0: 1cca 7b3f 637f 7b3f 0b0d 7c3f a6f6 7a3f
000001b0: 62ca 7c3f da9b 7a3f f4b2 7b3f 3339 7a3f
000001c0: 5276 7b3f 7b08 7a3f 0308 7c3f 6fe6 793f
000001d0: 32ca 7c3f 7cbb 7c3f 9fd2 7c3f 3d6c 7a3f
000001e0: 4727 7a3f 0b6c 793f 4ec3 7a3f da2e 793f
000001f0: 27ca 793f a32c 7a3f 508f 7b3f 6689 783f
00000200: 90a8 793f 920d 7c3f 6908 7d3f 1130 7d3f
00000210: 3998 7d3f a885 7b3f 3f84 7d3f 5f88 793f
00000220: db7a 7a3f b567 7a3f 9655 7a3f 0ca0 7b3f
00000230: ca9a 793f 7114 7a3f ce30 7a3f be2c 7b3f
00000240: 39d2 7b3f ca9c 7a3f b965 793f d180 7a3f
00000250: 592f 7a3f 7b72 7b3f a61f 7b3f 38f6 7a3f
00000260: a0ad 783f ea18 793f aec5 7a3f 9098 7c3f
00000270: 65ea 7c3f f9af 7b3f f0b0 7a3f de89 7a3f
00000280: e5f9 7b3f 8372 793f e75e 7b3f 21ab 7c3f
00000290: 1f6c 7a3f d931 7c3f 3a9a 7b3f 5cd0 7a3f
000002a0: d3f6 7b3f de06 7b3f 0acf 7a3f ed75 7a3f
000002b0: 400a 7c3f 5393 7b3f f577 7a3f b492 7a3f
000002c0: c8ac 7c3f 1e01 793f a0d2 793f 88a8 7a3f
000002d0: bb24 7b3f b613 7b3f 712c 7b3f c304 7c3f
000002e0: 9943 7a3f bd6d 7a3f 0ae3 793f 8989 7b3f
000002f0: 3e9f 7a3f 226e 7a3f 2d03 7d3f 810a 7a3f
00000300: de54 7a3f 31d8 7c3f cec0 7c3f 998b 793f
00000310: 0ea4 7b3f fb13 7a3f 38b1 773f ed73 7e3f
00000320: 9d8b 793f 863f 7c3f 4ed2 7d3f 3e5b 7b3f
00000330: 7bfa 7d3f 81e0 7b3f 0c73 7b3f 6e25 7b3f
00000340: f704 793f 06c1 793f 044b 7a3f 2b08 793f
00000350: 26ea 7b3f fad4 793f 766a 7c3f f3e5 783f
00000360: ec5d 7e3f b10c 7b3f 3281 7a3f 1148 793f
00000370: 3d16 7a3f 8c52 7a3f 26ee 773f 4009 7d3f
00000380: a2cd 7b3f 371e 7b3f 3f0e 7b3f e147 7b3f
00000390: 16de 793f 67e7 7d3f 2a44 7b3f 9718 7e3f
000003a0: a1d2 7a3f 4ea9 7a3f a239 7b3f 9d2f 7a3f
000003b0: 7882 7b3f b01d 7a3f e8d8 7c3f 7dba 793f
000003c0: bbef 783f 6cf3 7a3f f217 7b3f f037 7a3f
000003d0: 7feb 7b3f 5c7a 7a3f cdbf 7a3f c3c7 7a3f
000003e0: 70d8 7a3f 9d17 7a3f cc8d 7a3f 59c6 793f
000003f0: 4f00 7d3f 1645 7a3f bfe1 7a3f daca 7a3f
0.9754007 0.9947946 0.975559 0.9795866 0.98020566 0.9749181 0.978406 0.9755097
0.9761018 0.98424196 0.9716883 0.97983485 0.98027456 0.9771093 0.996636 0.9801891
0.9739958 0.9787244 0.98790413 0.9816064 0.9829154 0.9816201 0.97602487 1.0026038
0.9810851 0.98471034 0.9759959 0.98031706 0.97983533 0.9754887 0.97919637 0.9745756
0.9724131 0.9789542 0.97552484 0.99878037 0.98858064 0.9838791 0.9677955 0.983795
0.9922759 0.9868213 0.9836921 1.0004375 0.9774851 0.975277 0.9811983 0.9759543
0.9722584 0.9712913 0.9724718 0.99447536 0.9838875 0.98057 0.97226137 0.9861871
0.9715592 0.9839634 0.97173023 0.99726593 0.970435 0.97210985 0.9764981 0.97563434
0.9757612 0.97334385 0.97775024 0.9867243 0.977344 0.99250984 0.98244774 0.9825632
0.99237686 0.9825723 0.9782747 0.97761035 0.9774189 0.98386836 0.9765446 0.977778
0.9799118 0.990539 0.978188 0.9858469 0.9804175 0.97970104 0.97930014 0.9741548
0.97851586 0.98045236 0.97152686 0.9776156 0.98234785 0.98451936 0.9864529 0.9747775
0.98185825 0.9751001 0.9723181 0.98930985 0.9813295 0.99287957 0.9801289 0.97611886
0.9835527 0.9824125 0.984574 0.98032606 0.9874631 0.9789406 0.98319936 0.9774353
0.9822742 0.9766919 0.98449725 0.9761724 0.98746026 0.9872358 0.9875888 0.9782141
0.9771618 0.97430485 0.9795426 0.97337115 0.97574085 0.9772436 0.9826555 0.97084653
0.9752283 0.98458207 0.9884096 0.9890147 0.990604 0.9825082 0.99029917 0.9747371
0.9784371 0.97814494 0.97786844 0.9829109 0.97501814 0.9768744 0.9773072 0.98115146
0.9836765 0.9789549 0.9742084 0.9785281 0.97728497 0.9822156 0.98095167 0.9803195
0.9713993 0.9730364 0.97957885 0.9867029 0.9879516 0.9831539 0.97926235 0.9786662
0.98428184 0.97440356 0.98191684 0.9869862 0.9782123 0.9851356 0.98282206 0.9797418
0.984235 0.98057353 0.97972167 0.9783619 0.9845314 0.98271674 0.9783929 0.978801
0.98701143 0.9726733 0.97587013 0.9791341 0.9810292 0.9807695 0.9811469 0.98444766
0.97759396 0.978237 0.9761206 0.98256737 0.97899234 0.978243 0.9883297 0.9767228
0.9778575 0.9876738 0.98731697 0.97478634 0.982972 0.9768674 0.9675479 0.9939564
0.9747866 0.9853443 0.99149024 0.981861 0.9921033 0.9838944 0.9822242 0.9810399
0.972732 0.97560155 0.97770715 0.9727809 0.9840416 0.975906 0.98599946 0.97225875
0.99362063 0.9806624 0.97853386 0.9737559 0.9769018 0.97782207 0.9684776 0.9884224
0.98360646 0.9809298 0.9806861 0.98156554 0.976045 0.99181217 0.98150885 0.9925627
0.97977644 0.9791459 0.98134816 0.977289 0.98245955 0.9770155 0.9876847 0.97550184
0.972408 0.9802768 0.9808341 0.97741604 0.98406214 0.97842956 0.97948915 0.9796106
0.9798651 0.9769228 0.97872615 0.9756828 0.98828596 0.97761667 0.9800071 0.97965777

bn1.bias f4 [256]
00000000: 1b6e 923a ea9a 5dbd d772 7dbc b1e8 d3ba
00000010: 4d2f b9bb 1e7c c5bb 7787 6abb 7c80 71ba
00000020: 68e7 61bc 3807 0ebb e5d7 c3bb a2f5 d5bb
00000030: 098d 38bc c79f 7cbb 95f1 c4bb ab4b d138
00000040: 17e6 77bb a0d7 fcba 4fe9 96bc f6aa de3a
00000050: 44d3 ddbc a8f0 59bc 3127 5b3b ef7d 8cbc
00000060: d30a 613b 9e65 1abc b23c baba 4350 3fbc
00000070: 38e2 18bc b3c8 283c 5056 21bb c2e0 74bb
00000080: 0f01 3ebb 960d 2bbb c31c 04bd 1914 36bd
00000090: cac8 5639 d890 8fba e137 86bc 9021 90bb
000000a0: ebec 04bd 3763 203b cb03 d33b 2e6e e3ba
000000b0: 108e 17bc f782 cbbb 63bb 01bb b545 343c
000000c0: a3bc 44bc 01ec 2b3c b1e8 9abb 256c 753b
000000d0: f5ab 0b3b 92bb 223b f44f e83b 4662 4dbb
000000e0: 1710 993c a931 79bc 925f 03bc d3eb 3cbd
000000f0: 3be0 89bb d45e 053b 83f4 023c a6d9 823a
00000100: 4b9c 043c d890 193b 4b89 50bc 09b5 58bc
00000110: 103c a9bb 36f2 e0ba f864 85bb e4b2 63bc
00000120: e43b d9ba 2b38 ddba 3889 96ba 16c2 f3bb
00000130: 2def eaba 5feb 2fbc f97b 87bb 74b4 1cbb
00000140: 5f6f 9abb 6ecf 19bc cae9 3dbc 33db 26bb
00000150: 6dc3 9abb 35eb 4039 e457 b439 db42 703a
00000160: 7866 11bc 35c3 25bc 91e2 bf3a 3e6a 833c
00000170: 2736 f0bb 9887 e03a d3da 90bc 793c 99bc
00000180: 4715 eebb 9839 a63a e126 52bd ae13 ef3b
00000190: a761 0fbc f924 de3b 0cee 31bb e1fc e73b
000001a0: 0eca e63a 0488 7a3c 22c4 80bb 3b08 2abb
000001b0: 3df5 b33c 1f18 893c e6d2 3cbb e574 afbb
000001c0: ef74 91bb 8d13 ae39 4ef1 073a 7f5d fdbb
000001d0: 98a7 37bb 364f a93b c75e 4c3c bcca 86bc
000001e0: 5a80 e43b d542 c7ba 3252 cdba 97ac ceba
000001f0: 592b 9abb d3ab ee3a b305 7d3b bcde a3bb
00000200: ab1b 2b3a ce28 a539 d23d 98bc 8c10 b038
00000210: 4fad cfbc ed89 3bbb 59fd 663b ec58 19bc
00000220: 5d54 00bc 1829 60bb 9857 dfba e41b 88bb
00000230: 4c49 993b 69bc babb 030e 27bb 38a2 7dbc
00000240: 5353 2fba e52f f8b9 931b b0bb d026 c7ba
00000250: 1a90 3fbb 8601 5f38 a8ba 4dbc 34e3 a13b
00000260: 7e6e 7f3a 517e debb 257f 8dbb ee35 acbc
00000270: 3a70 96bc ba84 56bb 986f b7ba 5dfa a5ba
00000280: 9eca e73a 022c 45bc 438c 6abc 736a 33bc
00000290: 923a 1cbb 9545 7d3b 2550 623b 96f6 503b
000002a0: 5802 89bc 64e1 dbb8 cbcd 5e3b 35e5 873b
000002b0: 7cc1 a7b7 3f6b 943a f85a 0c3b fd6b 90bb
000002c0: a360 bbbb 3192 54bb 356b 1fbc 0fa1 dcbb
000002d0: 34b2 b7bb c060 c0bb 05d4 bf3b 1444 563b
000002e0: 2a49 b0b9 b11b 043c 5dc9 f6bb 426a 2d3b
000002f0: 039a 4bbc 52b3 8aba 1421 6c3b 66c1 75bb
00000300: 1377 213b 2b8e cd38 7383 d5bb 991e b2bb
00000310: 79cb 81bc 2967 22bc 09ed 303c 8994 6dbc
00000320: 047c 233c 7081 c0bc 643f 1bbb cca6 133b
00000330: f68f b6bb 2c8b bd3b e3d4 9c3b 0e7e 963b
00000340: 9015 f6bb 67df 2fba cf28 28b9 de62 0cbc
00000350: d06c f9bb 151b ab3b 257a 293c be69 97b8
00000360: a96c dbbb e8b9 f33b 7251 2cbc dd1b 65bc
00000370: 1502 46bb cf0a 98ba 98c3 efba cda7 73bd
00000380: d55c 423b 1bf3 04bc 7ead e9bb 6f6c 98b8
00000390: 2c72 2db8 5e01 6ebd 77e4 5d3b b0ae 073c
000003a0: 6395 08bb d75a b5ba af3e 05bc 1bb3 19bc
000003b0: 8223 183c 36ff c33a 7cb1 0d3c 0dd0 6c3a
000003c0: 9cbc 95bb 9698 893b d79e 15bb aeca e6bb
000003d0: b70b 943b 543a 91b9 1f1c 15bb d001 81b9
000003e0: 7bd8 ad3b 27b5 fbbb c3c3 abbb e502 96bb
000003f0: 55ae 2b3c da2f 34bb 0cdd cab9 6591 afba
0.001117173 -0.054102816 -0.0154692745 -0.001616737 -0.0056513906 -0.006026759 -0.003578631 -0.0009212566
-0.013788082 -0.0021671783 -0.0059766644 -0.006529526 -0.011264094 -0.0038547383 -0.006010244 9.979991e-05
-0.0037826353 -0.0019290335 -0.018421797 0.0016988206 -0.027078278 -0.013302006 0.0033440108 -0.017149894
0.0034338727 -0.0094236415 -0.0014208762 -0.011676851 -0.0093312785 0.010301757 -0.0024618097 -0.0037365411
-0.002899233 -0.0026100627 -0.03225399 -0.04445276 0.0002048343 -0.0010953201 -0.016384067 -0.004398532
-0.032452505 0.00244732 0.006439661 -0.0017351562 -0.009250179 -0.0062106806 -0.001979553 0.011002948
-0.012007865 0.010493279 -0.004727446 0.0037448492 0.0021312211 0.002483104 0.0070896093 -0.0031339093
0.01868443 -0.015209594 -0.008018391 -0.046123337 -0.0042076386 0.0020350711 0.007992866 0.0009983077
0.008093904 0.002343228 -0.012728046 -0.013226756 -0.0051646307 -0.0017162028 -0.0040708743 -0.013897631
-0.0016573635 -0.0016877701 -0.0011484986 -0.0074389083 -0.0017924063 -0.010737269 -0.0041346517 -0.002391127
-0.0047129835 -0.009387834 -0.011591384 -0.0025460243 -0.0047230036 0.00018398168 0.0003439776 0.00091652357
-0.008874528 -0.010117342 0.0014639666 0.016041871 -0.007330674 0.0017130254 -0.017682469 -0.018705593
-0.00726572 0.0012681959 -0.05130661 0.007296047 -0.0087513095 0.00677931 -0.0027149944 0.007079706
0.0017607824 0.015291218 -0.003929631 -0.0025944847 0.021967525 0.016735135 -0.0028812229 -0.005354511
-0.0044389884 0.00033202433 0.00051857985 -0.007732093 -0.0028023478 0.0051669134 0.012473769 -0.016454093
0.0069733085 -0.0015202413 -0.0015664755 -0.0015767989 -0.0047048745 0.0018209167 0.0038608133 -0.0050009172
0.0006527255 0.00031501654 -0.018584166 8.395416e-05 -0.025351195 -0.0028616146 0.0035246222 -0.0093595795
-0.007832614 -0.0034204181 -0.0017039655 -0.0041537154 0.004677927 -0.00569873 -0.002549053 -0.0154805705
-0.00066881365 -0.0004733793 -0.005374381 -0.0015194062 -0.0029230178 5.3168762e-05 -0.012556709 0.004940415
0.00097439426 -0.0067899604 -0.0043181353 -0.02102181 -0.01836406 -0.003273292 -0.001399505 -0.0012663115
0.0017684286 -0.012034418 -0.014315668 -0.010950672 -0.0023838622 0.003864621 0.0034532633 0.0031885258
-0.01672475 -0.00010484716 0.0033997174 0.0041471967 -1.999805e-05 0.0011323466 0.0021416526 -0.0044074045
-0.005718307 -0.003243577 -0.00973015 -0.006733067 -0.0056059603 -0.0058709085 0.005854132 0.0032694386
-0.00033623847 0.008063243 -0.0075313286 0.002646104 -0.012426856 -0.0010582006 0.0036030458 -0.0037499308
0.0024637624 9.8016426e-05 -0.006515914 -0.0054357764 -0.015844094 -0.009912291 0.010798701 -0.014500746
0.009978298 -0.02349922 -0.0023688907 0.0022529839 -0.0055713607 0.005784413 0.0047861203 0.0045926636
-0.0075098947 -0.000670901 -0.00016036931 -0.008568494 -0.0076118484 0.0052217343 0.010344063 -7.219937e-05
-0.006696303 0.0074379332 -0.010517465 -0.013983694 -0.0030213643 -0.0011599901 -0.0018292544 -0.0594862
0.0029657383 -0.0081146015 -0.0071312776 -7.268122e-05 -4.1352745e-05 -0.058106773 0.00338581 0.008281395
-0.0020840995 -0.0013836276 -0.008132621 -0.009381081 0.0092858095 0.0014953378 0.008648273 0.00090336875
-0.004569603 0.004199098 -0.0022830272 -0.0070432043 0.004517998 -0.00027700013 -0.0022752357 -0.00024606148
0.0053053475 -0.007681507 -0.0052418425 -0.004577982 0.010478576 -0.0027494342 -0.00038693135 -0.0013394771

bn1.running_mean f4 [256]
00000000: d6db 2dbd 2424 183e ae84 81bc cc08 ab3d
00000010: e1d8 debd 9097 03be 9526 2b3e 4fbc 5bbe
00000020: 0ba9 c93d 7c57 c1bd 2497 5b3d 76e5 46bd
00000030: 4f1c 393e 84aa 0b3c f673 2a3e cc28 bf3d
00000040: e128 99bd f68a c0bd e584 abbd 2e0e f63d
00000050: fad6 3e3e e8ef d43d 6a17 c3bd 6588 06be
00000060: 7dc2 133e 2c2e 1b3e a86b 45be 1909 473d
00000070: c92f 98bd d735 3a3d 21f9 16be 60db 45be
00000080: cc08 4ebe d2c4 72bd f08a 8abc c052 4abd
00000090: 2d23 eabc 603f f93d d3e6 89bd 3131 0fbe
000000a0: 8135 babd feff 4c3c cb31 39be 13ab cfbd
000000b0: 5d92 2f3d 26c1 ef3c 1d34 1cbe 8f96 0abd
000000c0: ce05 b2bd e2c5 7e3c 8a0b f13d 4bf6 da3d
000000d0: 2453 383d 0272 0bbe 97ad d03d c73d 21be
000000e0: cee8 8ebd 60a2 08be b5f9 653e 0ce1 33be
000000f0: d99b 033d 6ae9 003e f709 b63d 6685 f73c
00000100: d2a9 073e 3b71 2d3d e1f5 27bd 7804 ca3c
00000110: f09e 59be 87e4 bfbd 4e6d b6bd 6e10 903d
00000120: 1edd d4bd 298d e4bd 35c0 72bd e3cc debd
00000130: 8f24 3bbe fdd3 59bd d6aa 51be ac4a cfbd
00000140: 4e3c 453e e88e 38bd 3d71 1bbe aba8 12be
00000150: 5530 ad3c 4f09 4fbd d4c4 8ebc de33 16be
00000160: ba55 9f3d 493c ecbd ef13 09be 5ae4 22be
00000170: 730b 023e 03d6 da3b b725 f0bd c294 463d
00000180: e3f1 fd3b 6083 a83d 244d c0bd 552f 213e
00000190: 65ef 033e 1450 e4bc bcee 8037 a3d5 1a3e
000001a0: 178f 8c3c 673d 0bbe e33f 2abe c700 d53d
000001b0: c610 3dbe 9682 82bd 387d 2a3e 6c44 5ebb
000001c0: 3c7b 0f3d 21fb 893d 2ab1 9abd 3d7f 233e
000001d0: 61ce 9abd 39cf 1e3e a2ab b33c 4a52 03bd
000001e0: 9bac 3f3e 6976 64bd 9090 cc3c ca0f 703d
000001f0: ae8f e1bd 6ac9 a8bc c2f4 9e3d 9e1f 013e
00000200: c648 b33d d3e6 3abe 7014 343d c229 f9bd
00000210: e97d 243e 6077 943d dae5 4dbd e899 163b
00000220: 6edd 0cbe f558 673c 3a79 3f3e f1c4 eabc
00000230: 215c 29bb 8e9b 28be 77a7 9abd 45d5 2ebe
00000240: 3b47 e2bd f295 c7bd 1e93 0f3e 6ec3 e03d
00000250: 168a 0fbe d5e3 703d bf9e b63d 9a47 173e
00000260: b16c e83d 35c6 4c3e bb18 b5bd 7a36 e3bd
00000270: 249d cd3b d77a ac3d 4985 0abc 52c1 6e3d
00000280: 3495 19bd 4404 97bd 12e7 313e c4be 043d
00000290: 4bc1 91bd 240e 9f3d addb 573d 275f 973d
000002a0: 42fe 29bd b1c2 0f3e b081 e7bd 66a9 023e
000002b0: dfc8 1f3e b2fc 8e3d 6f3c b43c bdfb 053e
000002c0: 9690 123b 402e 833d 058c 89bd 226e 04be
000002d0: 57aa 443e abe0 2ebe 6f4b 0cbe 482d c23d
000002e0: 713d c33c dd51 c63d 7d6f 6d3e a724 263e
000002f0: 6494 db3d f231 dabd 0a0a c6bc 9630 98b9
00000300: 6f8d e6bd 0de5 1ebe b088 1abc 4083 7b3d
00000310: 6327 5c3d 2d5b fdbd 0768 d5bd 4ac4 793d
00000320: 05fc 4fbd e3db 9d3d e0fd d53d 1a0e 053d
00000330: f9db 10bd 0ebb 453e 49d5 6f3c 5402 16be
00000340: 38d3 fcbc ad79 543c db69 eebb 3156 1fbe
00000350: 6767 423e fa32 f0bd 393b f23c 4a92 0ebe
00000360: 61a2 0b3e e8cb bebd d1e9 123e 0a77 133e
00000370: 8924 d4bc d956 103d 8eca 0bbe a46e 98bd
00000380: 0416 2a3e 40a3 873d 164f 983d ba07 a9bb
00000390: e083 59be 588a 7f3c 212b 1fbd 0487 e2bd
000003a0: 3a56 2cbe cce7 9cbd 8547 f23d 6624 973d
000003b0: bff4 23be 6947 163d bc83 2cbe 894e 4f3d
000003c0: 2540 173d f1b6 d03d 0ea0 3cbe 4364 dd3c
000003d0: 5bc1 34be 9380 04be 8676 ffbd b43b 433e
000003e0: 612a 2fbd dbaa 0d3e 75b2 aebc c825 1d3e
000003f0: 801e 5a3d 252d d33d ba97 833d 4c39 b83b
-0.04244598 0.14857537 -0.015810337 0.08351287 -0.1088121 -0.12850785 0.16713937 -0.21458553
0.098466955 -0.094405144 0.053610936 -0.048558675 0.18077205 0.008524541 0.16645798 0.09333953
-0.074785 -0.09401505 -0.08374957 0.12014423 0.18636695 0.10397321 -0.0952595 -0.13137968
0.1442966 0.15154332 -0.19279349 0.04859266 -0.07430989 0.045461502 -0.14743473 -0.19321966
-0.20120543 -0.059269734 -0.016911954 -0.049395323 -0.028581226 0.12170291 -0.06733479 -0.13983609
-0.09092236 0.012512205 -0.18085401 -0.10140052 0.042864192 0.029266905 -0.15254255 -0.03383499
-0.086925134 0.015550109 0.11769779 0.10691508 0.045001164 -0.1361771 0.1018936 -0.15746222
-0.06977998 -0.13343191 0.22458537 -0.17566317 0.03213105 0.1258904 0.088886194 0.030214977
0.13248375 0.042344313 -0.041005973 0.024660334 -0.21252036 -0.0936976 -0.08907567 0.07034384
-0.10393737 -0.11159737 -0.059265334 -0.10878923 -0.18275665 -0.053180683 -0.20475325 -0.101216644
0.19261286 -0.04505816 -0.15179916 -0.14322154 0.02114121 -0.050545987 -0.01742784 -0.14668223
0.07780023 -0.11534936 -0.1338651 -0.15907422 0.1269968 0.006678344 -0.117259435 0.04848171
0.0077497824 0.08228183 -0.093897134 0.15740712 0.1288429 -0.027870215 1.5369958e-05 0.15120558
0.017158074 -0.13597642 -0.16625933 0.10400539 -0.1846343 -0.063725635 0.1664933 -0.0033915294
0.035029635 0.06737352 -0.075533226 0.15966506 -0.07558895 0.15508737 0.021932427 -0.0320609
0.18718188 -0.055776987 0.024971277 0.058608808 -0.11013733 -0.020603854 0.077615276 0.12609717
0.08754115 -0.18252115 0.043964803 -0.12166168 0.16063656 0.072493315 -0.05026803 0.002297992
-0.13756344 0.01412033 0.18698588 -0.028658362 -0.0025842267 -0.1646559 -0.07551473 -0.17073543
-0.110487424 -0.09745397 0.14020965 0.10974775 -0.1401752 0.058811028 0.08916997 0.14773408
0.11348856 0.19997485 -0.088426076 -0.11094375 0.006274836 0.08421867 -0.008454629 0.058289833
-0.037495807 -0.073738605 0.17373303 0.03240849 -0.07116946 0.07766369 0.052699734 0.07391196
-0.041502245 0.14039113 -0.11304033 0.12759933 0.1560397 0.069817916 0.022001473 0.13084312
0.0022364012 0.06405306 -0.0671616 -0.12932637 0.19205604 -0.17077892 -0.1370065 0.09481293
0.023833008 0.09683583 0.2318706 0.1622492 0.10721663 -0.106540576 -0.024174709 -0.000290279
-0.11257445 -0.15517063 -0.009432003 0.061404467 0.0537485 -0.12370906 -0.10420232 0.06097821
-0.050777454 0.07707956 0.104488134 0.03248415 -0.035366032 0.19309637 0.0146382535 -0.14649326
-0.030862436 0.012968463 -0.0072758025 -0.15560223 0.18984757 -0.11728473 0.029569255 -0.13922992
0.13636161 -0.09316236 0.14347006 0.14400879 -0.025896328 0.035239074 -0.13651487 -0.07442978
0.16609961 0.06622934 0.074369594 -0.005158392 -0.21241713 0.015596949 -0.03885949 -0.110609084
-0.16829768 -0.07661399 0.118300475 0.07379989 -0.16011332 0.036689196 -0.16847128 0.050612006
0.036926407 0.10191143 -0.18420431 0.027025348 -0.17651884 -0.12939672 -0.124737784 0.19065744
-0.042765025 0.13834707 -0.02132533 0.15346444 0.053251743 0.10311345 0.06425424 0.0056220647

bn1.running_var f4 [256]
00000000: 1297 493d c98f 5c3c 7554 333e da41 f73c
00000010: 1d6e 223d f093 743d 4999 8c3c a2e3 1a3e
00000020: 4ced 7f3c 9f71 f43c 0030 0f3e e201 ff3b
00000030: 421d 273d 6248 d43c 038a 143d e1d5 f53c
00000040: ce08 4b3d 05b2 db3c 5eaf 393d fdbf 8f3c
00000050: 07aa 183d 6c9b d63c 4d8e dd3c 6915 023c
00000060: c919 153d 1e99 a13b 9327 ae3c 4593 723c
00000070: dc4c 733c 9300 373d a0f8 013d bcc9 a03d
00000080: 603f 893d 9250 fc3d 4ff9 773c 54b3 173c
00000090: 04d7 e53c 90fc 813c d6c6 033e fef8 833c
000000a0: 18f4 563d 5f1a 5c3c a6a6 1e3d 164a 763c
000000b0: 371d 713e 42b8 383c f051 483c 5938 163c
000000c0: 14b3 573d eac3 ad3c 5186 593d ad94 be3c
000000d0: a283 003d 8412 c63c e9df e93c 8832 e83c
000000e0: bb2a 0c3c 6665 283c d279 bc3d 30a0 573d
000000f0: e90c aa3c 0290 503d f5f0 ad3c acdc a33d
00000100: 9742 813c 7298 393e ecfe d03c f476 153d
00000110: 3ad0 1f3d 62c8 923c 9c43 aa3c eaf3 c73c
00000120: 5481 4f3c 94af 0c3d 428c 0c3d 0fdc a03d
00000130: 5891 de3d 85e1 a63c 0142 ca3d a4a0 863d
00000140: e755 7f3c 3599 373c 9a54 433d 0b88 8a3c
00000150: 735b 853d 9f34 d13d 5d46 833d 7cdb 013d
00000160: 13e2 443d c0cb 963c 9b98 a33d 2c5d d23b
00000170: 360f d03c db66 073d 5924 2c3d 4a6a 803c
00000180: 5b0d 9b3c a42e 303e c30c 613d bd45 ef3b
00000190: 8922 1f3d 0e36 333c 551c 843b face 9c3c
000001a0: 7068 3c3d ab3c 3c3d 5c3b 6d3c 7cd8 443d
000001b0: c164 e43c 91be 843c 8ad2 7f3c ecae 9a3c
000001c0: 00c6 063d 7471 0f3d 3a73 8b3b 712b 383d
000001d0: e85d 023d 656d 943c ece7 0f3d c634 5a3d
000001e0: 5a4b 163d c123 273e 7816 033d 7bd2 aa3d
000001f0: 27b5 b53d a18d 663d 2e18 6f3c c85c 083e
00000200: 2417 b53d 6a4a 2e3c b6dd 463d 5f10 1b3c
00000210: 0a59 263d 490c 6a3c 6c30 8e3c 0da2 e23c
00000220: 6c35 0b3d fa7a fb3c 9d5f ab3d 1926 313c
00000230: 187f d03c 0d16 273c 73a3 2b3e 4eea 2d3c
00000240: 6f4a 083d b0d5 cc3c fa5c 473d f959 873d
00000250: 2ba7 b43c cefc 653c de1f 523c 2de2 ee3c
00000260: c132 003e a7b7 3c3d 8395 9f3c 70f4 c03c
00000270: 3788 ae3c e07c 2e3d 1e5b fe3c 2351 4b3d
00000280: 9cbc 423d 8f75 733d 7811 d43c ae4e 1b3c
00000290: f053 143d 2015 183c 4803 0b3d 86fa 543c
000002a0: 559b a73c a8cc 983c a102 a13c 7234 1f3d
000002b0: 4e41 cf3c e2e3 5e3b 63f6 c43c 4ec8 073d
000002c0: 1afa 013c 3dc3 bd3c 8375 fe3c f182 f33c
000002d0: 162f 1c3d 077d bb3c 38d5 8f3c a13f 543c
000002e0: 5950 503c 6821 4f3c 3756 e13d 98bb 1d3c
000002f0: 958e 003d 980f 283e 8f30 903c 02aa d63c
00000300: 932e 313e c085 cc3b 1c54 9c3c e7d1 283d
00000310: 525f 363d bf10 5b3d b7b0 153d 19be a33c
00000320: 58bb c33c 2d24 823d 47df 873d 83e9 633c
00000330: 6fc7 123c 0c88 8b3c 91e8 323c e05d 083c
00000340: 63ce 6d3e 368c 993d 78ac 443e 42b5 6f3d
00000350: d3e8 093d ea6f 4a3c aaff 263c 77cc 823c
00000360: 88b7 103d 668d 913c 6ab6 773c 1fbe a33d
00000370: aee3 ac3c bdb2 d13c d794 733d 059d 233d
00000380: de98 d13b 0b7d 903c 4c17 b63c 2c72 893d
00000390: 93b1 3e3e aef7 153d 1c01 4a3c bb4a 173d
000003a0: 7b37 ad3c 3130 5f3c 7758 123d c8cd 443d
000003b0: 9b74 c03c a9d0 4b3e a5cb 123d 2215 033e
000003c0: cff4 9e3c 28c9 193c daac 9c3c beca 623d
000003d0: 4c03 e33c cd7f d33c 5870 af3c 8e25 b53c
000003e0: 1293 f73c c4e9 0b3d aa46 3a3d 8d2f 0e3e
000003f0: 0750 a53c 595a 083d 2865 103c 47ce 363d
0.049216338 0.013462015 0.17512687 0.030182768 0.039655793 0.059711397 0.017162936 0.15125898
0.015620541 0.029839335 0.13983154 0.007782207 0.040799387 0.025913421 0.03626443 0.030009212
0.049568944 0.026818285 0.04533326 0.017547602 0.037271526 0.026197158 0.027045393 0.007939675
0.036401544 0.004931583 0.021259105 0.01480562 0.014849868 0.044678282 0.031731248 0.07850978
0.06701541 0.12320055 0.015135123 0.009259064 0.028056629 0.015867501 0.12868819 0.01610994
0.05247888 0.013434022 0.038733147 0.015032312 0.23546301 0.011274399 0.012226567 0.009168708
0.052661017 0.021211583 0.05310661 0.023264254 0.031375535 0.02417875 0.028549151 0.028344408
0.00855511 0.0102780815 0.09202923 0.052643 0.02075811 0.050918587 0.021233061 0.08001074
0.015778823 0.1812456 0.025512181 0.036490396 0.03901694 0.017917816 0.020784192 0.0244083
0.012665112 0.03434713 0.034313448 0.07854473 0.10867566 0.020371208 0.098758705 0.065736085
0.015584446 0.011205961 0.047688104 0.016910573 0.06511583 0.10215115 0.06409905 0.031703457
0.048067164 0.018407702 0.079880916 0.0064197984 0.025397878 0.033057075 0.04202685 0.015675683
0.018927267 0.17205292 0.05494381 0.0073020146 0.038851295 0.010938181 0.0040316978 0.019141663
0.045998037 0.045956295 0.014479484 0.048058018 0.027880074 0.01620415 0.015614161 0.018882237
0.03290367 0.035020307 0.0042556794 0.044963304 0.031827837 0.01811857 0.035133287 0.053272985
0.036692955 0.16322233 0.03200385 0.08340927 0.08872443 0.05628741 0.014593167 0.13316643
0.08842304 0.010637859 0.048551284 0.009464352 0.040612258 0.014285156 0.017357074 0.027665162
0.033986494 0.030698288 0.08367846 0.010812306 0.025451228 0.010198128 0.1676157 0.010614945
0.03327411 0.025004238 0.048672654 0.06608958 0.022052368 0.014037324 0.012824981 0.029160583
0.12519361 0.046073582 0.019480472 0.023554057 0.021305187 0.04259956 0.031049307 0.049637925
0.047543153 0.059438284 0.025887236 0.009479208 0.03621286 0.00928238 0.033938676 0.012999183
0.02045981 0.018652275 0.019654574 0.038868375 0.025299694 0.003401034 0.024043268 0.03315001
0.007933164 0.023164386 0.031061893 0.029725524 0.038130842 0.022886766 0.017557725 0.012954623
0.012714469 0.012642242 0.11002772 0.009627245 0.031385977 0.16412199 0.01760128 0.026204113
0.17302923 0.00624153 0.019083075 0.041215803 0.0445245 0.053482767 0.03654548 0.019988107
0.023893043 0.06354556 0.06634384 0.013910654 0.0089586815 0.017032646 0.010919706 0.008323163
0.23223262 0.07497446 0.19206417 0.05852247 0.033669304 0.012355784 0.010192791 0.015966637
0.03533128 0.01776762 0.0151191745 0.07995247 0.02110466 0.025597924 0.059468117 0.039944667
0.006396397 0.01763775 0.022227906 0.0671123 0.18622427 0.03661316 0.012329366 0.036936503
0.02114462 0.01362233 0.035728898 0.04804781 0.023493102 0.19903816 0.03583874 0.1280103
0.019403843 0.009386338 0.01912539 0.05536913 0.027711533 0.025817776 0.021415874 0.022112634
0.030221496 0.034158483 0.045477547 0.13885327 0.020179762 0.033289287 0.00881318 0.044630315

conv2.weight f4 [128, 32, 3, 3]
00000000: ea10 a33c 73ea 44bc 72e9 113d 6d46 20bd
00000010: 7a12 ce3c 1295 533d 6275 f7bc a087 243d
00000020: 8df8 b33c c0e6 f5bb cc94 373d 88ab 4b3d
00000030: 4170 56bc fa53 ef3c 9d26 e33c fcdb e33c
00000040: 22b0 fd3c 900e ef3c 3616 2e3d abd9 1ebd
00000050: 3296 9a3b bb5e 543d 4ce5 2abd 4526 3d3d
00000060: 2932 d63c 2c4a 87bd f137 51bd 1d86 33bd
00000070: c842 233d 1719 2a3c 5a99 ffbc 4f00 013d
00000080: 251a 43bd 962e 7fbc ab5f 4cbd d58e e93c
00000090: ec19 68bc 8fa4 633c 8082 cd3c 9027 3f3d
000000a0: 43c9 cbbb 42b3 99bc df1b cb3b 5408 333c
000000b0: 37d1 94bc 0347 953c 299f 9abb 14da 52bb
000000c0: 63bd 69bd bb56 59bd 15e4 b83c acac 14bd
000000d0: 2b2a f2bc cc92 713d c18b 09bd f5b9 483c
000000e0: 6ef4 a838 9fb9 473d d7fa a13c f94e d0bc
000000f0: cdc7 163d 35d6 2cbd efef 52bd 41a2 09bd
00000100: 4475 733d 6ce9 703c 4c76 bb3c 9f48 3bbd
00000110: 968f 293d 0f80 963c 2fff 403b 3b9c 283c
00000120: ef8d 5abd dfea 4fbd 5c30 2b3c 0b1d 89bc
00000130: 8d48 273d 5f91 323d e58d aa3c 16f2 7cbc
00000140: 6cce 0b3d b407 22bd 6d7c 403b 95df 01bc
00000150: 2989 92bd 70d0 bc3c 2c7d 53bc a657 f7bc
00000160: b9c4 bdbc 370f 8abd f817 3d3d a8f9 d83b
00000170: 4da9 9bbc 5dee 97bc b6fd d8bc c24e ce3c
00000180: 8199 fbbb a248 85bc ec7c 053b 1347 0f3d
00000190: 7249 28bd 4682 a5bc 8be4 f43c 7eeb f1bc
000001a0: 569f 3c3d 1ea3 063d f008 5bbd 9821 293a
000001b0: a0a6 74bd d40e 633d 79d2 533d a2b2 dabc
000001c0: 761a a7bc 03fe 1abd aaff 1f3c 3775 743c
000001d0: 2f88 faba 4e85 e93a 2c33 41bd fbe0 c8bc
000001e0: 7064 063d 6b60 4cbb b430 86bc d241 ae39
000001f0: 0b78 18bd a258 e2bc 2810 6abd be89 d3bb
00000200: d50e d9bc 2d5f 663a dfdb 87bc 3e89 20bd
00000210: cd44 423d 6579 3cbc d7e7 6e3c dafc 57bd
00000220: b65f 5ebd f5ac c93c d82c 55bd 7d9d 313d
00000230: 8638 8b3c 30f2 ba3b 2be4 34bc 3ed7 70bc
00000240: 2a4a cb3c 32e2 373b c057 4c3d 3274 783c
00000250: 56d4 7ebd 44c3 23bd 4e5b 39bd b822 163d
00000260: 4ecc 76bd 6c60 373c b7b8 2bbd dc28 44bd
00000270: d28c 4b3c 5318 2238 144f f93c 2394 59bd
00000280: 1a52 18bd f88d dfbc c37c 323d 9901 433d
00000290: ba91 23bd aab1 88bc fc9d 243a 95da af3d
000002a0: 2f94 7b3c 242e 3bbd b9a7 c73b 06e1 6e3a
000002b0: 663e c43b de74 50bd 4c83 82bc 621a 413d
000002c0: 8108 f63c af27 683d d64d 833d d636 acbc
000002d0: 5a6e a93a 69c2 8ebc cad5 5bbd b7f4 583d
000002e0: 3f9c a9bb 67d9 8fbc 0318 64ba 6309 ae3c
000002f0: b84a ef3c 3b09 f03c 9133 5c3d 937d 6d3d
00000300: a513 2c3d d177 773c b8fb 12bd 860a 39bc
00000310: b624 683b 1e98 f93c a3e0 1dbd 36f3 2ebd
00000320: a470 6ebc 6eb7 5abd e7b2 88bc cd28 c8bb
00000330: d4f4 003d 018f 323d 3ed4 85bd 8fb6 a83a
00000340: 19f6 1c3d fb90 9d3c e0e1 52bd 654f 943c
00000350: 31f1 963b e9af 733d 09d1 08bc 44e8 833d
00000360: 6ef1 25bd 388b 0bbd ba2f 11bd 8c0d 73bc
00000370: faa5 2b3d be39 cdbc d768 04bd c70f 423c
00000380: 26fb 6cbd 2686 613c 317b d8b9 9e70 55bd
00000390: 4849 84bb 0d4b b0bc e39c 163c e99a 4f3d
000003a0: 6119 8ebc d780 813c 8820 0fbd 1c5b d93c
000003b0: d25a f23c ae6b bd3c a01f 1a3d b558 f63c
000003c0: 2d0c 933d b883 1bbd 3fe5 063d 7228 393d
000003d0: 3c08 08bd d1a9 853c 040f 203d 9bb1 0fbd
000003e0: 9618 513d 703f 40bc 2f79 25bd 853c 27bd
000003f0: d1fb 5f3c 0a5b 4dbc 57ab 823c 2bd6 16bd
0.019905526 -0.012018788 0.03562302 -0.039129663 0.025155295 0.051655836 -0.03020734 0.040168405
0.021969104 -0.007504314 0.044819638 0.04972413 -0.013088287 0.029214848 0.027728373 0.027814858
0.030967776 0.029181749 0.04250165 -0.038781803 0.0047176117 0.051848155 -0.04172258 0.046179075
0.026146965 -0.06605944 -0.05107874 -0.043829072 0.03985861 0.010381958 -0.031201053 0.031494435
-0.047632355 -0.015575072 -0.049895924 0.02851049 -0.0141663365 0.013894214 0.025086641 0.04666859
-0.0062190606 -0.018762235 0.006198391 0.010927279 -0.018166168 0.018222338 -0.0047186804 -0.0032173442
-0.05706538 -0.05306123 0.022569695 -0.036297485 -0.029561123 0.058977887 -0.033580545 0.012251367
8.056393e-05 0.048761006 0.01977293 -0.025428282 0.03681164 -0.04219647 -0.05149835 -0.033602003
0.059438005 0.01470409 0.022883557 -0.045723554 0.0413967 0.01837161 0.0029448976 0.0102911545
-0.053358015 -0.0507611 0.0104485415 -0.016737482 0.040840674 0.043595668 0.020819614 -0.015438577
0.034132406 -0.039558128 0.0029371039 -0.007926841 -0.071550675 0.02304861 -0.012908261 -0.030193161
-0.023165094 -0.06741183 0.046165437 0.006621558 -0.019001627 -0.018546278 -0.026488166 0.025184039
-0.007678211 -0.016269986 0.0020368649 0.03497989 -0.041085668 -0.02020372 0.029894134 -0.029531237
0.046050392 0.032870404 -0.05347532 0.0006451844 -0.05972922 0.055434063 0.051714394 -0.026696507
-0.02039836 -0.0378399 0.009765545 0.014920524 -0.0019114072 0.0017816217 -0.047167942 -0.024521342
0.03281063 -0.00311854 -0.016380645 0.00033236906 -0.037223857 -0.027630154 -0.057144314 -0.006455629
-0.02649633 0.0008787986 -0.016584335 -0.039193384 0.047428895 -0.011503552 0.014581642 -0.052731372
-0.054290496 0.024618605 -0.05204472 0.043363083 0.016994726 0.0057051405 -0.011040728 -0.014699755
0.024815638 0.0028058407 0.049888372 0.015164422 -0.062214218 -0.03998114 -0.04525309 0.036654204
-0.060253434 0.011192422 -0.041924205 -0.04789053 0.012423711 3.8646464e-05 0.030433215 -0.05311979
-0.037187673 -0.027289376 0.043576013 0.047608946 -0.039933898 -0.01668628 0.0006279645 0.08586613
0.015355154 -0.0456983 0.006092992 0.00091125106 0.005988884 -0.050892703 -0.015931748 0.0471443
0.030033352 0.05667847 0.064113304 -0.021022242 0.0012926564 -0.017426686 -0.053670682 0.052967753
-0.0051760967 -0.01755972 -0.0008701088 0.02124471 0.029210433 0.029301276 0.053760115 0.057981085
0.042010922 0.01510425 -0.03588459 -0.011294013 0.0035422272 0.030468043 -0.03854431 -0.042712413
-0.014553223 -0.05339759 -0.01668687 -0.0061083795 0.031483486 0.04359341 -0.065346226 0.001287179
0.038320635 0.019234171 -0.051484942 0.018104265 0.004606389 0.059493933 -0.008350619 0.064407855
-0.04051345 -0.034068316 -0.035445906 -0.014834773 0.041906334 -0.025051948 -0.032326546 0.011844582
-0.0578567 0.013764894 -0.00041290515 -0.052109353 -0.004037056 -0.021520162 0.009192678 0.050684843
-0.017346086 0.015808506 -0.034943134 0.026532702 0.029584322 0.023122635 0.037627816 0.030071596
0.07180057 -0.037967414 0.03293347 0.045204587 -0.033210978 0.016316326 0.03907682 -0.035081487
0.051048838 -0.011733875 -0.040398773 -0.0408292 0.013670878 -0.012533912 0.015950842 -0.03682534

conv2.bias f4 [128]
00000000: 62aa 06bd 44db 473c 95e4 34bd dbda f8bc
00000010: 305d 6bbc 31a9 babc 68d1 0fbd 8d51 dbbc
00000020: 5ad7 1ebc ecdb 393c 5af1 b23c d51b 903b
00000030: 1f4f 083c 07fd 91bc 2dad 9e3c fb2e 243d
00000040: 0459 e6bc 6b23 83bb c450 f43c 7846 9dbc
00000050: 0f67 84bc 9920 263c 62ed d6bc 5f46 cbba
00000060: d021 d1bc a939 573c 8710 05bc 0169 5bba
00000070: b038 81ba 48e2 203a eb3d 66bd 7234 48bd
00000080: 1901 443c 9bf7 8abc 6baa 583d ae52 173d
00000090: 1d9d f53c 0af7 aebc d3be 9dbc 94a5 8bbc
000000a0: 9cb2 123d e80f 5dbd d507 41bd cd10 10bd
000000b0: 972b c03c 500c 083c 81a7 f33b e52a 973c
000000c0: ca8c da3c 58a1 7e3c aafd dfbc 5ea6 003d
000000d0: 7df2 963b 3620 a9bc 46f5 c23c 401b 6b3d
000000e0: 9302 5c3d d33d b93b 0115 26bd 6007 3cbc
000000f0: 5085 ea3c 9480 2dbd d30a 98bc e4ac 2e3d
00000100: 3729 ebbc ee1b da3c c493 1d3d 3124 9d3c
00000110: 7440 27bd 629a 83bc cbf8 6ebb 0bec d03c
00000120: 2d03 2b3d 7309 33bc 2be7 81bb 19a6 1dbd
00000130: 9335 b9bc 7a59 64ba 9ec2 293d df34 a8bc
00000140: 1f61 4cbc b500 d73a 187c 5bbd 5c10 a3bb
00000150: 5559 0fbd 9746 db3a db32 023d b7c5 903b
00000160: 4c4c ff3c 1344 5d3d 6978 303d 1ca0 b2bc
00000170: f186 76ba 4219 233b 32e8 563d f798 96bc
00000180: 3254 69bd ced3 07bc d85e 7fbc 661e 053d
00000190: e6f2 a03c d4db 453d 838c f9bb 0eaa 68bd
000001a0: 27cb 3a3d 0db4 543d afa3 48bd 8b23 b13c
000001b0: e9f9 7a3c 5646 1dbb 8dde 65bd f556 6c3d
000001c0: d04e 7dbc cf6a 123d 3d31 0fbd ecec 4d3c
000001d0: 0822 83bc 7bc9 05bd 1c6b 153d 9963 4ebc
000001e0: 7074 07bd 2691 d13c f362 2a3d 628c 1bbd
000001f0: f498 023d bbd8 613d 9b56 4c3d 5f8b 653b
-0.032877333 0.012198273 -0.044163305 -0.030377796 -0.014365479 -0.022785755 -0.035111815 -0.026772285
-0.0096948985 0.011343937 0.021843601 0.004397849 0.008319645 -0.017820848 0.019369686 0.040083867
-0.028118618 -0.004002025 0.029823668 -0.019198641 -0.016162423 0.010139608 -0.02623624 -0.0015508643
-0.025528818 0.013136306 -0.008121616 -0.0008369834 -0.0009858813 0.0006137234 -0.056211393 -0.04887814
0.011963152 -0.01696377 0.0528969 0.036944084 0.029982144 -0.021358032 -0.019256031 -0.017046727
0.035814866 -0.053970248 -0.04712661 -0.035172272 0.023458285 0.008303717 0.0074357395 0.01845307
0.026678462 0.015541397 -0.027342636 0.03140866 0.0046065436 -0.020645242 0.023798596 0.057399035
0.053713392 0.005653122 -0.040547375 -0.011476368 0.028628021 -0.04235895 -0.018559849 0.04264535
-0.028706176 0.026624646 0.038471 0.019182296 -0.04083295 -0.016064826 -0.003646421 0.025503179
0.041751076 -0.010927546 -0.003964325 -0.03848848 -0.022608554 -0.0008710843 0.041445367 -0.020533023
-0.012474327 0.0016403409 -0.053585142 -0.0049763154 -0.034997303 0.0016729411 0.03178678 0.0044181007
0.03116431 0.05402 0.043083582 -0.021804862 -0.0009404263 0.002488688 0.052467532 -0.018383486
-0.05696506 -0.008290244 -0.015586577 0.032499693 0.019647073 0.048305348 -0.0076156273 -0.0568028
0.045603897 0.051929522 -0.048984226 0.021623394 0.015318372 -0.0023998222 -0.056120444 0.057700116
-0.015460685 0.03574639 -0.034959067 0.012568694 -0.016007438 -0.03266285 0.0364791 -0.012596988
-0.033070028 0.025581907 0.04159827 -0.037975676 0.03188415 0.05513833 0.04988728 0.0035025699

bn2.weight f4 [128]
00000000: f76c 7a3f 9373 7b3f be0f 793f 4259 7a3f
00000010: 0913 793f 9948 793f c59a 7d3f 73e2 793f
00000020: 95a5 7d3f 68b9 793f 34ea 7b3f 836b 7b3f
00000030: 91c3 793f d826 7c3f edef 7d3f c1d3 7a3f
00000040: 2ccd 7a3f 7adf 7d3f 369d 793f e356 7a3f
00000050: 05f2 793f 216b 793f 3228 7b3f 7f6e 7a3f
00000060: 1d34 803f 79e7 7b3f 99f2 793f bd9b 793f
00000070: 8f59 7b3f d28e 7b3f 6808 7b3f c9c5 783f
00000080: 17c6 7a3f f88c 803f be8b 773f 4329 783f
00000090: 8d42 7b3f cace 793f b480 7a3f 4384 7d3f
000000a0: 4f61 7a3f d1b3 7a3f bb0f 7a3f ef0a 7b3f
000000b0: eb47 7b3f 41cd 783f 51b4 783f 570e 803f
000000c0: 0b16 7e3f 732a 793f 5dbd 793f abb1 7b3f
000000d0: 9583 7a3f 182c 7b3f b67e 793f 9ed1 793f
000000e0: 5de3 7c3f fd1f 793f 4ed1 7a3f 68de 7a3f
000000f0: 7f9c 7b3f 5ca4 7a3f 93c3 7c3f 4b00 7c3f
00000100: 3e4f 7c3f f90f 7a3f 1f20 7a3f 0499 7c3f
00000110: df9b 7b3f f7d8 7b3f 570c 7a3f 8c2e 7b3f
00000120: f897 793f 2c0d 7d3f 7bd0 7a3f eb43 7b3f
00000130: 3fbf 783f 2551 793f e2d6 7b3f 5b15 7c3f
00000140: 4c12 7d3f 6db1 7a3f 4c19 7a3f 86c6 7c3f
00000150: e97d 7a3f 9a24 7c3f 0460 7d3f 91d4 773f
00000160: cc0f 793f 0021 7a3f ed5c 7a3f fec1 7c3f
00000170: a505 7a3f 92e0 7a3f 4baa 7b3f b52c 7b3f
00000180: 35ce 793f 51f8 793f 1569 793f 200f 7e3f
00000190: b350 7a3f 3b2e 7f3f 7de5 783f bfe8 793f
000001a0: b4a9 7b3f 22c5 793f acef 783f 87f5 793f
000001b0: 805a 7b3f 4bdd 7b3f 21ef 7e3f 5081 7a3f
000001c0: a974 7d3f 237e 7a3f 6013 7c3f 0d64 7b3f
000001d0: 9dc0 783f 0557 7a3f 2f6e 7a3f f2c0 7b3f
000001e0: 7809 793f 0592 7a3f be33 7a3f a92c 793f
000001f0: ac92 803f 8fa3 783f c54d 7d3f 509f 793f
0.9782252 0.9822323 0.97289646 0.97792447 0.9729467 0.973764 0.99064285 0.9761116
0.99080783 0.9754853 0.9840424 0.98210925 0.97564036 0.9849677 0.9919422 0.9797936
0.9796932 0.99169123 0.9750551 0.9778883 0.9763492 0.9742909 0.9810821 0.97824854
1.0015904 0.98400074 0.976358 0.9750326 0.9818353 0.982648 0.980597 0.97176796
0.9795851 1.004302 0.96697605 0.9693796 0.98148423 0.9758116 0.97852635 0.9902994
0.9780473 0.9793063 0.9768025 0.9806356 0.98156613 0.9718819 0.9715014 1.0004376
0.99252385 0.973304 0.9755457 0.98317975 0.9785703 0.98114157 0.9745897 0.97585475
0.9878443 0.97314435 0.97975624 0.97995615 0.9828567 0.9790704 0.9873592 0.9843795
0.98558414 0.9768062 0.9770526 0.98670983 0.98284715 0.9837794 0.9767508 0.981179
0.9749751 0.98848224 0.97974366 0.9815051 0.9716682 0.9738944 0.9837476 0.98470086
0.98856044 0.9792698 0.9769485 0.9874042 0.97848374 0.9849335 0.98974633 0.96808726
0.9728973 0.97706604 0.97798043 0.9873351 0.9766486 0.9799892 0.9830672 0.9811509
0.9758027 0.97644526 0.9742597 0.9924183 0.9777939 0.9967992 0.9722517 0.9762077
0.9830582 0.97566426 0.9724071 0.9764027 0.9818497 0.9838454 0.9958363 0.97853565
0.99006134 0.9784872 0.98467064 0.9819954 0.97168905 0.9778903 0.97824377 0.98341286
0.97280073 0.9787906 0.977352 0.9733377 1.0044761 0.9712457 0.9894679 0.97508717
