models/lenet_pretrained.pkl (torch, 69256 bytes, 8 tensors)

conv1.weight f4 [64, 1, 5, 5]
000000 bc a3 f0 bc 36 41 35 bd 4d a7 00 be 13 96 29 be
       -0.02937495 -0.044251643 -0.1256382 -0.16561155
000010 e4 c5 27 be 7a c0 89 bd d2 94 b8 bd 7f f7 ca bd
       -0.16384083 -0.06726165 -0.0901276 -0.099104874
000020 6b cc 08 be 3a ff 8b bd 81 7f 70 bd c8 74 dd bd
       -0.1335923 -0.0683579 -0.058715347 -0.1081329
000030 70 3c dc bd ba 1d 87 bd 7a 59 1c bd 8e 8d 3b bd
       -0.10753715 -0.06597467 -0.03817127 -0.045789294
000040 e2 ea 01 be eb 55 e0 bd e6 c7 be bd 44 cf b5 bc
       -0.12687257 -0.109538876 -0.09315471 -0.022193559
000050 bf 59 43 bd 5f 72 89 bd d9 8b 95 bd fd b9 2b bd
       -0.04769301 -0.06711268 -0.073020644 -0.04192542
000060 c6 d0 20 3d 84 8c 62 3d ed 51 dc 3d bf 5c 19 3e
       0.039261602 0.055309787 0.107578136 0.14976786
000070 73 83 3c 3e c8 99 00 3e 9b 61 2a 3d 48 4a 06 3e
       0.18409519 0.12558663 0.04159699 0.13114274
000080 0c 92 0c 3e 92 fc 53 3d 41 88 40 bd af 88 d6 3b
       0.13727587 0.05175454 -0.04700494 0.0065470557
000090 37 39 1a 3d 0d d3 d0 3c 38 ab 50 bd 3e a8 87 bd
       0.03765222 0.025491262 -0.050944537 -0.066238865
0000a0 82 bd cf bd 9e f6 d9 bd 01 8c cf bd 9f f0 1d bd
       -0.101435676 -0.106427416 -0.101341255 -0.038559552
0000b0 58 f2 93 bc 09 f1 38 be d9 78 54 be 4d f3 18 be
       -0.018059894 -0.18060698 -0.20749225 -0.14936562
0000c0 cd e6 21 bd e5 44 08 bd 09 25 76 3d 5f 49 bc 3d
       -0.03952675 -0.033268828 0.060093913 0.09193682
0000d0 59 0b 03 3e b3 a4 0c 3e 1d 74 57 3d d7 60 c0 3b
       0.12797298 0.13734703 0.05260097 0.005870919
0000e0 a0 c8 b7 3d e7 0e 72 3d 37 1d 35 3d b2 a2 59 3d
       0.08973813 0.059096243 0.044217315 0.053133674
0000f0 9b b1 a8 bc dd b8 1a 3d e1 8d 87 3c 4a ce f1 bc
       -0.020592501 0.037773956 0.016547145 -0.029517312
000100 b6 d4 c4 bc 17 85 de bd 85 96 9a bd 63 7f 5f bd
       -0.02402721 -0.108652286 -0.075482406 -0.054564845
000110 5c 4f 1d bd e1 fd 85 bc ee 99 0f be 16 3c 27 be
       -0.03840576 -0.01635641 -0.14023563 -0.16331515
000120 01 3a cf bd 90 4a a0 bd 71 7b 61 bd 73 d2 31 bb
       -0.10118485 -0.07826722 -0.055049364 -0.0027133494
000130 8c fb ff bc e0 0f f6 bc 63 20 1d bd bc ba 53 bd
       -0.031247877 -0.030036867 -0.038360965 -0.051691756
000140 24 fa b5 39 bd d5 3f 39 f6 17 41 bd 5c 1b 83 bd
       0.0003470938 0.00018294803 -0.04714199 -0.06401703
000150 af ae 19 bd fa e3 af 3c c1 30 8c bc 99 07 1b bd
       -0.037520107 0.021471012 -0.017113091 -0.037849043
000160 69 a7 f6 bc 25 bf 5c 3d e3 eb 47 bc a0 b8 71 bb
       -0.030109124 0.053893227 -0.012202236 -0.0036883727
000170 cc 8f 80 3d f3 17 60 3d 7c 0f b1 3d 03 db b6 3d
       0.06277427 0.05471034 0.086455315 0.08928492
000180 e1 e1 cc 3d 96 88 d7 3d be 30 37 3d 18 3a 74 3d
       0.100040205 0.105240986 0.04472422 0.059625715
000190 4c 0a a8 3d 31 7b 1d 3d 48 4b 68 bd db 47 23 be
       0.08205089 0.038447563 -0.05671242 -0.1594538
0001a0 7e f9 49 be 99 7c ac 3d 4e 0e 0e 3c c0 96 d8 bd
       -0.1972408 0.084222026 0.008670403 -0.10575628
0001b0 ae b9 2f be 17 84 19 be ff ca 06 bd 06 e7 e8 bd
       -0.17160675 -0.14991795 -0.032908436 -0.11372189
0001c0 bc 6a 08 be 71 42 2a be dc 80 c5 bd 55 c7 a3 bd
       -0.13321966 -0.16626908 -0.096437186 -0.07997004
0001d0 80 b4 cd bd ef 04 3b be 62 82 19 be 9d 7d 43 bc
       -0.10044193 -0.18263601 -0.14991143 -0.011931804
0001e0 b4 41 0e be 02 f0 2c be 98 d4 0f be b6 3b 87 bd
       -0.13892251 -0.1688843 -0.14045942 -0.06603186
0001f0 54 b5 9b 3d 05 c5 c6 3d 5b f5 a5 3d ae 2b fd 3c
       0.07602945 0.09705547 0.081034385 0.030904617
000200 68 66 02 3c eb 93 9b 3d 12 61 7f 3d e1 ec b2 3c
       0.007958986 0.075965725 0.062348433 0.021841468
000210 f9 f6 cf bc 87 a4 79 3d d1 12 3a 3d 5d 22 68 3d
       -0.02538632 0.06094792 0.0454281 0.056673396
000220 98 f5 9c 3d 75 19 59 bc 37 b2 b7 3c 73 86 98 3d
       0.07664031 -0.013250698 0.022423847 0.07447519
000230 b3 05 d4 bb 59 53 a0 3c 69 0a 09 bd 57 00 70 bc
       -0.006470406 0.019570993 -0.033457194 -0.0146485185
000240 45 4c 80 3d 5d a3 65 3d 33 23 60 3d 36 81 80 3d
       0.06264547 0.056064 0.05472107 0.06274645
000250 10 2e 9a bc 02 88 68 3c 6d 4b e7 3c 56 7c 69 bc
       -0.018820792 0.014192583 0.028234208 -0.014250835
000260 0a 7c a1 bc cb fe 22 3d 1e ed 6f bc 2e f0 69 bc
       -0.019712467 0.03979377 -0.0146439355 -0.014278455
000270 2a a7 48 bc 7c 57 cb bc 0f 52 c2 ba 78 83 5d 3d
       -0.012246886 -0.02482199 -0.0014825481 0.054080456
000280 d5 24 cd bc 13 d9 dc bc 89 4b dd bb 44 32 f1 3c
       -0.025041977 -0.026958978 -0.0067533893 0.029442914
000290 44 a8 9e bc 90 f6 8c bc 6c 67 ea 3c 55 3b 2e 3d
       -0.019367345 -0.017207414 0.028613769 0.042537052
0002a0 8c cf 55 3d 8c 69 06 bd 94 07 77 3d 47 5c a8 bc
       0.052199885 -0.0328155 0.06030996 -0.020551814
0002b0 78 eb 82 bc b6 ba 08 bb 89 60 ca bc b7 af e9 3c
       -0.01598142 -0.0020863242 -0.024704235 0.02852617
0002c0 a4 11 cf 3d 65 f2 d7 3d 35 65 d5 3d a9 56 4a 3d
       0.101107866 0.1054428 0.10419694 0.04939905
0002d0 53 24 b3 3d 60 31 8f 3d 13 08 dc 39 98 fc 38 3c
       0.08747163 0.069918394 0.00041967686 0.011290692
0002e0 03 e3 ef bb 37 cc 4c 3d 42 5a 9a 3d 39 17 83 bc
       -0.007320763 0.049999442 0.075367466 -0.016002284
0002f0 8e 00 29 3d 4a dc 87 3d a2 41 14 ba 98 b9 e4 3c
       0.041260295 0.06633814 -0.0005655532 0.02792053
000300 a7 78 a7 3d 68 62 99 3d 2f 8e 17 3d 79 b4 93 3d
       0.081773095 0.07489473 0.03700083 0.07212157
000310 5f 65 f3 bb bf 0a c8 3c c2 8d 96 3d 86 bb 3e 3d
       -0.007427856 0.024419187 0.07351257 0.046565555
000320 bb 20 52 bd cf 3a 47 bd 79 6a a2 bd b2 d0 51 bd
       -0.051300745 -0.04864007 -0.07930464 -0.051224418
000330 c0 c4 4d bd f5 d5 98 bd d7 90 88 bd f2 a0 a6 bd
       -0.050236464 -0.07462684 -0.06668251 -0.08136167
000340 d5 7f b4 3b 71 29 39 3b 25 66 73 bd 9a d4 96 bd
       0.005508403 0.002825346 -0.059423584 -0.07364769
000350 97 4f 19 39 b2 11 77 3c 07 3d 97 3d 68 78 ca bc
       0.00014620867 0.0150799025 0.07384687 -0.024715617
000360 aa df f0 3c e0 8e 42 3d 97 de 2a 3c 0b 6f 02 3d
       0.029403526 0.047499537 0.010429046 0.03184418
000370 cd 67 a9 3d 23 03 a8 3d bd 0a 76 3d f0 c9 a1 3d
       0.082717516 0.08203723 0.060068835 0.07899845
000380 ae b3 91 3d 5d 5e 08 bc eb ad fd ba c5 bb 96 bc
       0.07114349 -0.008323279 -0.00193542 -0.018400082
000390 2f 13 70 bd f1 a6 24 bd bd 7e 35 bd de d2 20 bd
       -0.058612045 -0.04019827 -0.04431032 -0.0392636
0003a0 b9 9e 80 3b 21 51 1b 3d 93 86 59 3d 7b 0e d8 bc
       0.003925171 0.037919167 0.053106856 -0.026374092
0003b0 d9 d0 59 3d 2a 9c e3 3c 4c 88 a6 bc 36 ca a5 3c
       0.05317769 0.027784426 -0.020328663 0.020238023
0003c0 f1 f9 92 3d 4d e0 5a 3d 46 48 ec bc 81 f6 41 bd
       0.07176579 0.053436566 -0.028843056 -0.047354225
0003d0 6f 57 2a bd 7d 7a fc 3c 4f 97 f6 3c 19 62 9e bc
       -0.04158729 0.030820126 0.030101446 -0.019333886
0003e0 ed 16 a3 ba 5f 07 f8 bc 7e fa 14 3d 5e 57 58 3d
       -0.0012442746 -0.030276952 0.0363717 0.052817695
0003f0 67 35 fd 3a 16 73 f0 3b c7 7b 8c 3d fe df 2d 3d
       0.0019318283 0.007337938 0.06859546 0.042449944

conv1.bias f4 [64]
000000 07 9f 60 3e 30 47 27 bd e4 da 46 bc 52 95 b1 bd
       0.21935664 -0.040839374 -0.0121371485 -0.08671059
000010 c0 e9 9c 3d 9e 12 53 3e c7 73 c2 3c 43 50 01 3e
       0.07661772 0.2061257 0.023736848 0.12628274
000020 10 0d 07 3e f3 23 51 3d 5e a5 b7 bc fd 05 9d bd
       0.13188577 0.051059674 -0.02241772 -0.07667158
000030 17 b1 90 bd 3b f8 c6 3e b4 71 e1 3d f3 c6 4a 3d
       -0.07065027 0.3886126 0.11008015 0.04950614
000040 2e d7 76 3e 23 05 ba bd f9 47 11 be 20 6c 41 3e
       0.24105522 -0.09083011 -0.14187612 0.18888903
000050 38 2b 70 3e c7 ee 80 3e 26 89 15 3c 67 84 d8 3d
       0.23453987 0.25182173 0.009126937 0.10572129
000060 fd 6b 93 3d fe 30 48 3e 97 75 b6 bb bb 91 dc bc
       0.071983315 0.19549939 -0.005568217 -0.026924958
000070 ca 0c 88 bc 1f b1 33 3e 19 fd b5 3e 6e 26 38 3e
       -0.01660766 0.17548035 0.3554466 0.1798341
000080 85 c6 55 3e c5 7c d4 3d c5 aa 33 3e 25 a4 7f bd
       0.2087651 0.103753604 0.17545612 -0.0624124
000090 da de e1 3c c3 67 1e bd 71 91 74 3e 80 9c 11 3e
       0.027572084 -0.038673174 0.23883606 0.14219856
0000a0 ce 26 6a 3c f4 d5 95 bc 6f 6b 50 3e 47 2c 74 3e
       0.014291478 -0.018290497 0.20353483 0.23845015
0000b0 3d 43 79 3e 04 9c ae 3d 9c 1f 88 3d 15 e4 29 3d
       0.24342056 0.08525851 0.06646654 0.04147728
0000c0 b6 4a 49 3e 30 e4 af bc 00 b1 69 3e e9 e2 7c 3d
       0.19657406 -0.021471113 0.22821426 0.061739836
0000d0 5e f7 28 bd 11 75 ed bc e4 8d 88 3e 72 11 a8 bc
       -0.041251533 -0.028986486 0.26670754 -0.020516131
0000e0 fe d1 b4 bd 66 dc f6 3b 14 4a 78 bd 81 68 37 3e
       -0.08829115 0.0075335978 -0.06061752 0.17910959
0000f0 f4 de 0e be 9f ae 77 3d 1f 71 d6 bc 40 cd e6 bd
       -0.13952237 0.060469266 -0.026176987 -0.11269617

conv2.weight f4 [32, 16, 5, 5]
000000 0a f7 07 bb e2 37 42 3d 93 78 67 3d c4 5c f1 3d
       -0.0020746612 0.047416575 0.056511473 0.11785272
000010 0f ac bb 3d fc 94 eb 3c 22 30 69 3d e9 c2 8a 3d
       0.09163677 0.028757565 0.05693067 0.067754574
000020 7b d2 b8 3d 1e 82 87 3d 69 4a eb 3c 36 c8 b4 3d
       0.09024521 0.06616615 0.028722005 0.0882725
000030 44 77 9b 3d a1 d5 ad 3d cb 3b 99 3d b3 91 2d 3d
       0.075911075 0.08488012 0.07482108 0.042375278
000040 ca 78 39 3c 16 62 2d 3d 42 2a 4a 3c c6 ef 09 3b
       0.011320302 0.04232987 0.012339177 0.0021047457
000050 9a 5f c9 3c 4c 58 67 bc 8c dc de 3a 90 f0 0c 3c
       0.02458172 -0.014120173 0.0017002984 0.008602276
000060 b0 98 c8 bc 24 8e 00 bd 06 b3 38 bd f3 96 2f bc
       -0.02448687 -0.031385556 -0.045092605 -0.010717141
000070 64 32 2c 3d 1d 5e bb 3d fb 06 85 bb d3 df 45 bc
       0.042040244 0.0914881 -0.00405967 -0.01207729
000080 2f 32 e6 bb b0 6e d4 3c 3a 2e 8f 3d 8e 56 9c 3d
       -0.0070250253 0.025931686 0.06991239 0.076336965
000090 d2 63 48 3d 64 6b 95 3c b5 d1 02 bc 07 b8 ab 3c
       0.04892332 0.018239684 -0.007984568 0.020961775
0000a0 59 11 65 3d 06 46 ad 3c 6f a1 d0 bc 4a fc 46 bd
       0.055924747 0.021151554 -0.025467603 -0.048580445
0000b0 13 3d 8a bc ba 37 1b 3d aa 2c 4f bb e3 21 3c bd
       -0.016874826 0.037894942 -0.0031612315 -0.045930754
0000c0 de b8 0d bd 2b 3c 60 bc 69 0e bc bc 65 23 07 bd
       -0.03460013 -0.01368622 -0.02295609 -0.03299274
0000d0 44 af 2c bc 74 4d 33 3d 89 20 9b 3d f1 80 09 bc
       -0.010539833 0.043775037 0.07574565 -0.008392558
0000e0 84 5a d0 bb 8d 0a 1f bc 65 d7 c1 3c e6 52 7d 3d
       -0.0063584466 -0.009707105 0.023662278 0.061846636
0000f0 9f 71 63 3d 62 8e 35 3d b8 fb da 3b 11 d8 56 bc
       0.05552828 0.04432524 0.0066828392 -0.013113038
000100 7f 4c f5 3b 80 92 e7 3c 41 93 77 bb 28 1d 97 bc
       0.0074859257 0.028268099 -0.003777698 -0.01844652
000110 ce d6 03 bd 3a 98 47 bc 7a 05 2b 3c 7d c0 be bc
       -0.032187276 -0.01218229 0.010438317 -0.023285145
000120 7b 5e 3c bd e1 72 27 bd ad b7 e3 bc 77 8a 8d 3c
       -0.04598854 -0.04088104 -0.027797544 0.01727794
000130 eb 44 de ba fe 11 8c bc 6e a7 b3 bc be 3f 92 bb
       -0.0016957795 -0.017098423 -0.021930423 -0.004463165
000140 f4 44 12 3d 8f bf 94 3c a6 7a ae 3b 04 f3 4f bb
       0.03571029 0.018157749 0.0053246794 -0.0031730542
000150 e3 1f ba 3b d0 b1 0b 3c 9d 7d f3 bb 5b 70 e6 ba
       0.0056800707 0.0085262805 -0.0074307458 -0.0017581092
000160 b4 7b b1 bb 6e 51 52 3b ef 73 a5 3c 2e ea d8 3c
       -0.005416358 0.0032091993 0.020196883 0.026478853
000170 fd e5 ff 3c 18 b7 d5 3c c3 5e b5 3c 19 c6 c8 3c
       0.031237597 0.026088282 0.022139912 0.024508523
000180 6b bb 5f 3d 30 f6 89 3d 1c e8 76 3d 2e a2 85 3d
       0.054622095 0.0673641 0.06027995 0.06525074
000190 03 58 51 3b 2d 0d 11 3d 7b 45 80 3d 62 d8 a5 3d
       0.0031943328 0.035412956 0.06263252 0.08097912
0001a0 fe f0 00 3e 49 18 ec 3d 64 cb ae 3d 13 79 8b 3d
       0.12591931 0.115280695 0.085348874 0.068102024
0001b0 bb 71 6f 3d ed 20 d6 3d 8b 40 11 3e 53 03 0f 3d
       0.05845807 0.10455499 0.14184777 0.03491528
0001c0 cc ae 84 3d a1 ec 46 3d 86 76 2c bc 23 37 cd 3d
       0.06478652 0.04856551 -0.010526305 0.10020282
0001d0 bb 43 cb 3d 7c b3 95 3d dd 0c 8f 3d 78 48 8a 3d
       0.09925028 0.073096246 0.06984875 0.067521036
0001e0 ec 8a ca 3d be 27 bc 3d fe 34 96 3d 44 36 9e 3d
       0.098897785 0.09187268 0.07334326 0.07725194
0001f0 18 c0 e8 3d 21 ec 62 bd 7e 3e ae bd bb f0 2a bd
       0.11364764 -0.05540097 -0.08508013 -0.041733485
000200 19 5c ca bd b8 6d 79 bc 23 ae 15 3c 1f fd aa bc
       -0.098808475 -0.015223913 0.009135756 -0.02087265
000210 02 55 d5 bd f5 ef c2 bd f6 d5 bb bd 71 4a 89 bd
       -0.104166046 -0.095184244 -0.09171669 -0.06703652
000220 64 f2 20 bc 0d 21 8d bc 7b f1 7c bc 39 43 f1 bc
       -0.009823415 -0.017227674 -0.015438433 -0.029451
000230 a5 3f b1 bd 03 1e 84 bd e9 d2 5c bd 66 26 2e bd
       -0.08654717 -0.06451037 -0.053912077 -0.04251709
000240 db 95 3e bd be ba fd bc 0b 03 30 bd 37 71 92 bb
       -0.046529632 -0.030972835 -0.042971652 -0.0044690627
000250 ee c9 a7 bd cf d0 59 bd 40 29 a6 3b 82 3e ab 3b
       -0.08192812 -0.05317765 0.0050708354 0.0052259574
000260 2b 2d d7 bb b1 b1 99 bb 4e 4e 77 38 43 a6 94 3b
       -0.0065666637 -0.004690372 5.8962316e-05 0.0045364215
000270 ac a3 85 39 c4 33 6b bc ae c3 ac bb 02 e7 c2 3a
       0.00025489682 -0.014355604 -0.0052723503 0.0014869871
000280 7a 42 cb 38 a2 d1 0f bc 8b 63 af bc d6 93 56 bc
       9.6921765e-05 -0.008778008 -0.02140977 -0.01309677
000290 44 d4 c5 bb 48 ca ce 3a dc 0a 55 3b bb f6 96 ba
       -0.006037267 0.0015776837 0.0032507693 -0.0011517623
0002a0 7d 84 c3 39 dc b4 f2 3b 24 83 3f 3b e3 39 3a 3c
       0.0003729201 0.007406814 0.0029222453 0.01136634
0002b0 86 e2 33 3b a2 7d 69 3c 82 1b 66 3c 8c 52 36 bd
       0.002744825 0.014251145 0.014044644 -0.044512317
0002c0 83 36 96 bd 2f 5d c5 bd 56 05 15 bd 02 8c f3 bc
       -0.07334616 -0.09636914 -0.036382042 -0.029729847
0002d0 37 9d b9 3c db 27 15 bd a6 46 ca bd 61 b2 95 bc
       0.022657974 -0.036414962 -0.09876756 -0.018273534
0002e0 e2 18 52 bd 66 01 63 3c 56 2f 02 bd fe 92 39 3b
       -0.05129326 0.013855314 -0.031783424 0.0028316374
0002f0 e3 0c 97 bd 5e 9a 55 bd a3 8a 82 bd f4 1e fb bc
       -0.07375505 -0.05214917 -0.06374099 -0.030654408
000300 e7 24 b7 bd 74 53 98 bd b4 a8 bc 3c 7a 14 32 bd
       -0.089425854 -0.074377924 0.023029663 -0.04347656
000310 cd bf d1 3a 5c ff 1d 3d 14 f7 00 3d d0 3d 4b bb
       0.0016002596 0.038573608 0.031485632 -0.0031012185
000320 1f 96 f9 bc 01 e5 52 bd 94 68 51 bd b1 d3 6c bd
       -0.030467091 -0.051487926 -0.051125124 -0.057819072
000330 3a 46 23 bd 8c e0 e1 bc 1c dc 9e bc 73 22 5d bd
       -0.039861895 -0.027572893 -0.019392066 -0.05398793
000340 6d e3 4b bc 23 52 06 bc 35 8f 5b bd a8 b1 1f bd
       -0.012444359 -0.008198294 -0.05360337 -0.038987786
000350 de 40 40 bd 1e 0b 9e bc 0e 10 42 bc 18 19 5a 3c
       -0.046936862 -0.01929241 -0.011844648 0.013311647
000360 3a cd cd 3b 4d 8e 80 bc 12 7a e6 3c 63 b8 3f 3c
       0.0062805684 -0.015692854 0.02813438 0.011701676
000370 ce 5a 85 3c 04 8e f9 3c 2f e4 bb 3c 88 b0 12 3c
       0.01627865 0.030463226 0.022935955 0.008953221
000380 da 4b 28 3d 90 34 a3 bc cd 2b 23 3b 12 58 8b bc
       0.041087963 -0.019922525 0.0024897933 -0.017009769
000390 10 29 3f bd 45 d3 65 bd ad 7e a8 bc f5 ab 5c 3c
       -0.04667002 -0.056109685 -0.020568216 0.013468732
0003a0 5b f4 1e bc 06 3d 0e bd 97 94 5c bd 2c ce 14 3c
       -0.009701814 -0.034726165 -0.053852644 0.009082358
0003b0 c3 16 c3 bb d7 e1 4f 3b 77 e7 60 bc 98 f3 6d bc
       -0.005953641 0.0031720304 -0.0137270605 -0.014523409
0003c0 f0 66 84 bc b2 f9 a2 3b 27 1b ce bb 39 9b 99 bc
       -0.016162366 0.0049736137 -0.006289858 -0.018750774
0003d0 d6 aa 51 bc 11 ac 87 bc 9b 63 98 bc 3e 87 b7 3c
       -0.012797078 -0.01656154 -0.018602183 0.022403356
0003e0 ec fc 0a 3b fb 9a 6b 3b 5e c5 08 bc 2b e6 06 bc
       0.0021207882 0.003595053 -0.008347837 -0.008233587
0003f0 c3 05 23 3c 3f 06 96 bb 65 93 c8 ba e9 f8 b9 bb
       0.009950104 -0.0045783813 -0.0015302716 -0.0056754244

conv2.bias f4 [32]
000000 e0 74 99 bd 4b 88 0a bd cb 30 42 3d ea 63 a0 3d
       -0.07492995 -0.033821385 0.047409814 0.07831557
000010 32 d1 a1 bd 86 65 3b 3d b2 a0 09 3c 4e ee 5e bb
       -0.07901229 0.045751117 0.008400129 -0.0034016552
000020 ee 60 6c 3d 3b b9 a0 bd 10 2f 73 bd 4f e0 71 3d
       0.057709627 -0.0784783 -0.059371054 0.059051808
000030 47 c7 07 3d a9 e3 bc 3d 67 22 d0 bc 07 e7 c1 3d
       0.03314903 0.0922311 -0.02540703 0.09467893
000040 5f f4 1c 3d 09 35 f0 3c b6 00 da bc 9b dc 8f 3d
       0.038318988 0.029322164 -0.026611667 0.07024499
000050 4c cd 85 bb 18 f4 02 3c 7b f1 2d 3d a7 94 b4 3c
       -0.004083311 0.007992767 0.04246662 0.02204354
000060 cd af 6d 3d 57 53 9d 3d 01 8d 22 37 2b d4 1a bd
       0.058028985 0.076819114 9.6887825e-06 -0.037799995
000070 78 9f 7d bd fc a7 c8 bd 9f 84 9c bd 11 27 85 3d
       -0.06191966 -0.097976655 -0.07642483 0.06501592

linear1.weight f4 [32, 32]
000000 02 62 e1 bd 58 29 1a 3d 1d b4 ea 3d 22 ee b3 3a
       -0.11005022 0.037637085 0.11460135 0.0013727585
000010 81 bb 05 3e d9 ee 2e bd 9e b3 9c 3d 26 1f 0c be
       0.13059808 -0.04270825 0.07651447 -0.13683757
000020 05 6c 5e 3e 6f 5f 54 3d 35 09 dd 3d aa a3 0d 3e
       0.21720894 0.051848825 0.10792772 0.13831964
000030 53 1b 1c be 8d b7 bd 3d 02 65 8d bd 29 7f 20 bc
       -0.15244798 0.09263525 -0.06904031 -0.009795942
000040 b2 f6 da bd 61 7b 38 3e 43 ba e4 bd f2 84 47 3d
       -0.10691585 0.18015815 -0.11168339 0.04871077
000050 ec 04 8e 3d 1d 4e 14 3e 89 4a 1e 3e 6b 26 96 bd
       0.069345325 0.14482923 0.1545812 -0.073315464
000060 6a 11 3a be 3b 64 31 bd 77 ab 91 be 13 ca 1e be
       -0.18170705 -0.043308478 -0.2845113 -0.15506773
000070 2d 11 7f 3d 46 0a 16 3e bb 8f 04 3e 81 c8 16 3d
       0.06227224 0.14652357 0.12945454 0.03681231
000080 43 62 c9 bd 7c 52 0f be 84 a3 29 3e 77 8e 49 be
       -0.09833195 -0.13996309 0.16566283 -0.19683252
000090 49 bf 8b 3e fc 99 46 ba 37 f8 b1 3b 6a b9 1e be
       0.27294376 -0.0007576046 0.005431201 -0.15500417
0000a0 11 a6 1a be 29 df bd bd 80 56 23 be ec 8d c4 bd
       -0.15102412 -0.0927108 -0.15950966 -0.09597382
0000b0 ae a3 8f bd 85 f5 91 bd 23 4b 87 3d 32 19 e5 3d
       -0.07013641 -0.07126907 0.06606128 0.11186446
0000c0 71 c9 c2 bd ff 0c d0 bc 14 e4 38 be 50 d1 b7 3d
       -0.09511078 -0.025396822 -0.18055755 0.0897547
0000d0 a9 6d 3e 3e 89 52 f1 bd c9 23 dc bd 3b dd cf 3c
       0.1859652 -0.117833205 -0.10749013 0.025374046
0000e0 54 ef 80 bd 98 7f 36 3d d7 8b c7 3d 88 a3 96 bd
       -0.06295648 0.044555277 0.09743469 -0.0735541
0000f0 bf 91 cd bd 15 45 43 3e 94 61 b6 bc e6 b9 88 3c
       -0.100375645 0.19069321 -0.022263326 0.016690206
000100 f5 3f 2d 3d bb 53 3b 3d cd c1 c3 bd 6b ed 3b 3c
       0.042297322 0.04573415 -0.09558449 0.011470179
000110 c2 db 00 bd cf bd bd 3d 8b 15 d3 3d f3 28 c1 bd
       -0.031459577 0.09264719 0.10306843 -0.094316386
000120 50 4c 0a 3e f3 5a db 3d c1 d4 d7 bd 53 54 e5 3d
       0.13505673 0.107107066 -0.105386265 0.11197724
000130 5d 1a 1d bd b5 3a 37 3c b3 09 ce bc 3e 05 75 be
       -0.03835522 0.01118343 -0.02515111 -0.23927781
000140 57 33 ce 3d 44 72 cc 3c f1 c4 ff 3d 42 03 51 bd
       0.10068386 0.02495683 0.124887355 -0.051028498
000150 dd 0a f2 bc 48 45 16 3d eb b7 46 3b ef 6d 99 bc
       -0.029546196 0.036687165 0.0030322026 -0.018729178
000160 9d 2a 4a be 9a 3c cd 3d a7 a4 d4 3d ac 4f dd bc
       -0.19742818 0.100213245 0.103829674 -0.02701553
000170 c4 c8 fd 3d a4 38 c3 bd cc 20 3e bd 8a 89 12 be
       0.12391809 -0.09532288 -0.046417996 -0.1431028
000180 a8 5b d8 bd cc e2 d1 3d f5 ac 86 bd 08 f1 26 3e
       -0.10564357 0.10248336 -0.06575958 0.16302884
000190 48 92 38 bd c6 21 3f be 12 39 9f 3d f6 72 8b 3d
       -0.04506138 -0.18665227 0.07774557 0.068090364
0001a0 39 52 91 bd e2 df 59 3e b0 b3 34 be 54 69 ec 3d
       -0.07095761 0.21276811 -0.1764667 0.11543527
0001b0 cb f7 0c be 0b ab 39 bd e4 c9 87 3b 9d 48 7d bd
       -0.137664 -0.045329135 0.0041439403 -0.061836828
0001c0 59 ae 4a 3e f3 94 51 3e 81 eb a9 3d fb ee d3 3c
       0.19793071 0.20466976 0.08296872 0.02587079
0001d0 f6 5e 79 3d 2d 85 5b 3c be 13 27 3d f5 62 12 3e
       0.060881577 0.013398451 0.040790312 0.14295562
0001e0 d0 51 41 3e 77 25 c2 3c 45 db 48 be e8 03 cc 3d
       0.18878865 0.023699505 -0.19614895 0.099616826
0001f0 88 90 23 be 1d 7a fe 3d e5 be d9 bd cb 11 3d bb
       -0.15973103 0.12425635 -0.10632113 -0.0028849717
000200 c4 77 eb bc ef 74 51 3d 02 17 27 3e 61 58 97 bc
       -0.028743632 0.051136907 0.1631737 -0.01847476
000210 40 3a 7a bd 23 80 06 bd b5 3e c2 3d 15 f4 93 bd
       -0.061090708 -0.032837044 0.09484617 -0.07224289
000220 f4 7b fe bd e9 c0 60 bd fd f7 d6 3d c0 4d 9c bd
       -0.12425986 -0.054871473 0.10496519 -0.07632017
000230 c8 47 fc 3c 3a 35 15 3e 8b 8e b8 bd a9 f5 ef 3d
       0.030795947 0.14571086 -0.09011563 0.11716778
000240 19 3b b4 bc e2 79 69 bd 8f a8 38 bd 1c 12 0f b9
       -0.022000836 -0.057001002 -0.045082625 -0.00013644289
000250 7c 7a b2 3d 0b 69 02 bb c9 44 11 bd b4 25 91 bd
       0.08714768 -0.0019899036 -0.03546599 -0.070872694
000260 01 51 06 3d e7 6e cb bd d8 f9 11 bd c7 4b 0b 3d
       0.032792095 -0.09933262 -0.03563866 0.034007814
000270 b5 54 9c 3d 96 3d de bd 1d a9 ef bd 44 f7 46 3d
       0.07633344 -0.1085159 -0.11702178 0.048575655
000280 90 0d a0 3d ce dd 2c 3e 4d cb 98 be 0d 7a a5 bd
       0.07815087 0.16881487 -0.29842606 -0.0807992
000290 40 57 56 bd 79 e8 a8 bd 02 61 17 3d e7 d1 5a be
       -0.0523293 -0.08247466 0.03695775 -0.21369134
0002a0 89 88 de bd 88 c2 43 3e 02 9f f5 3d d0 be 49 be
       -0.10865886 0.19117177 0.11993219 -0.19701695
0002b0 c9 79 88 3d 74 41 3f 3d 03 b9 17 be bb 2e 2a 3c
       0.06663854 0.04669328 -0.1481667 0.010387118
0002c0 cb b8 43 be 67 9b 08 3d db c2 56 3d 45 72 45 be
       -0.19113462 0.03335133 0.052431922 -0.19281872
0002d0 f1 2d 7f 3d 9d 9d 43 3d 22 ba b8 3b 39 84 de bd
       0.062299673 0.047757734 0.005637423 -0.10865063
0002e0 61 ff 2f 3e 98 71 58 be 05 92 dd 3c 56 22 c3 bd
       0.17187263 -0.21137083 0.027047167 -0.095280334
0002f0 d1 81 12 3e b7 cf f8 3b fb a2 d1 3d a7 06 22 be
       0.14307334 0.007593121 0.10236164 -0.1582285
000300 28 ce a4 bd 61 38 0b 3e 7d f3 cd 3d 1f 57 5e bc
       -0.08047134 0.13595726 0.10056207 -0.013570576
000310 8f f3 75 be ae fe d6 bd 04 c3 32 3e c7 41 03 3e
       -0.24018691 -0.10497795 0.17457205 0.12818061
000320 f4 c3 0e be f8 7b 4d 3e 74 ac c2 3d fd 90 40 3d
       -0.13941938 0.20066822 0.09505549 0.04701327
000330 fd 65 03 bd 28 c6 40 bd 96 d5 2e be b3 f0 f6 bd
       -0.032079685 -0.047063977 -0.17073664 -0.120576285
000340 96 39 b1 bd b5 61 33 3e c8 7e be 3d 98 b9 99 3d
       -0.08653562 0.17517741 0.09301525 0.07506102
000350 1d 28 d6 bd 8c c2 30 3d c9 43 16 3d 97 d4 b1 bd
       -0.1045687 0.043154284 0.03668574 -0.086831264
000360 1a 1e ee 3d 76 df d6 3d e6 e0 87 3d e0 6c 1a be
       0.11626835 0.104918405 0.06634693 -0.15080595
000370 f2 56 fa 3c c8 0a c6 bd 23 98 83 bd 94 34 24 bc
       0.030559037 -0.09670025 -0.06425502 -0.010022301
000380 2d 16 65 bc 10 33 a2 bd 09 3e 34 3e b6 d6 fa 3d
       -0.013982338 -0.07919896 0.1760179 0.12247984
000390 99 bb 95 3d 2c e1 ce bd ab 5e 06 be ed 55 96 3d
       0.07311172 -0.10101542 -0.1312205 0.07340608
0003a0 68 91 0c be 02 16 22 bd 59 cb e6 bd 86 78 dc 3c
       -0.13727343 -0.03957177 -0.11269254 0.026912939
0003b0 95 f3 03 3e a9 49 35 3d f9 e7 18 be 36 0f a5 3e
       0.12885888 0.0442597 -0.1493224 0.32238168
0003c0 1c a1 f7 3d 2c b3 a7 3d 59 ca 09 be c3 78 2c 3e
       0.12091276 0.08188471 -0.13456096 0.16842942
0003d0 3b b1 26 3e 23 c7 17 3e ca df f6 ba c1 18 5e 3d
       0.16278546 0.14822058 -0.0018835005 0.054222826
0003e0 f0 94 30 3e 5f a0 8f 3d 0f 2a 10 be 8e 61 4c bd
       0.17244315 0.0701301 -0.14078544 -0.049897723
0003f0 d3 d2 a4 bd c1 c4 85 bb d4 1c a2 bd 76 57 ce 3c
       -0.08048024 -0.004082293 -0.07915655 0.025188189

linear1.bias f4 [32]
000000 5a 5c d0 3d 88 bb 40 be 1a 04 bb 3c bc 83 fd 3d
       0.10173865 -0.18821537 0.022829104 0.12378642
000010 1c 86 30 3d a6 04 09 be 2c 06 db bb 7e ad c6 3d
       0.043096647 -0.1338068 -0.0066840854 0.0970106
000020 6e fd c2 bc 67 70 98 3d 60 8f 11 3e 43 7c c5 3c
       -0.023802485 0.07443314 0.1421485 0.024107104
000030 47 de d9 3c 7c b8 11 bd 49 e6 3a bc 3e 7b e9 3c
       0.026595248 -0.03557633 -0.011407443 0.02850115
000040 2c 07 89 bd b9 c8 0e be 1d 2a 29 bc f0 48 a5 3d
       -0.06690821 -0.13943757 -0.010324982 0.08070552
000050 20 98 74 3d 58 d5 ca bd 40 11 0a bd 90 ce f4 bd
       0.05971539 -0.09903973 -0.033707857 -0.11953461
000060 75 33 a2 bd 61 0e e9 bb d3 e7 3e bc 67 0a 6c 3d
       -0.07919971 -0.00711231 -0.011651951 0.057627108
000070 ad 4e 00 be fb 3c 8b bd 27 23 95 3d 3a f2 01 3d
       -0.12530012 -0.067987405 0.072820954 0.031725146

linear2.weight f4 [10, 32]
000000 bf 66 61 be 0e 27 ea bb 90 c0 f8 bd a2 c3 97 3e
       -0.22011851 -0.007145769 -0.121461034 0.29641443
000010 9a 54 c1 bc c4 c6 eb 3d ca 64 0a 3e 03 96 83 3e
       -0.023599911 0.11512521 0.1351501 0.25700387
000020 93 c2 ca bb 13 f1 bc 3d 10 2d fe 3d 62 d0 8c bd
       -0.006187746 0.09225669 0.12410939 -0.06875683
000030 1f 06 40 bd c7 5c b8 3d fa 34 1b 3e 1a 79 18 bb
       -0.046880838 0.09002071 0.15156928 -0.0023265542
000040 40 a6 13 be 08 8c 3c bd a3 a5 db bd d4 94 21 be
       -0.14418888 -0.04603198 -0.10724952 -0.1577943
000050 d6 8c 2c be 02 9a 0c be fd b1 20 bd 47 cf 1f bd
       -0.168506 -0.13730624 -0.039232243 -0.039016034
000060 b5 7b b9 3d f4 0c d8 3c 26 46 67 be c9 7b 2d 3d
       0.09056798 0.026373364 -0.22585353 0.04235438
000070 bd 93 1e be b2 ba 3c bd 74 32 9f 3e 39 c9 13 bc
       -0.15486045 -0.046076484 0.3109318 -0.009020143
000080 77 90 3c bd e7 fb 33 3c c1 d8 8c 3a 85 0f 52 bd
       -0.04603621 0.010985351 0.001074575 -0.05128433
000090 04 eb 4a 3d f3 a1 3a 3e 85 89 7c bd b2 16 8b 3d
       0.049540535 0.18225841 -0.061654586 0.06791438
0000a0 92 a5 cc 3c d6 42 c5 bd 3f c0 ed 3c dd 58 e2 3d
       0.024981294 -0.096318886 0.029022334 0.110521056
0000b0 67 ef 04 3b 09 5b 72 3d 06 24 93 be 30 30 26 be
       0.0020284296 0.05916885 -0.2873842 -0.1622932
0000c0 d1 b4 38 3d 24 21 40 be f7 63 15 3e a5 58 ec 3d
       0.045094315 -0.18762642 0.14588915 0.11540345
0000d0 42 ba 84 be 6e 28 ae 3e c1 b9 b4 3b 17 2c 14 3e
       -0.25923353 0.3401522 0.0055153077 0.14469944
0000e0 4c 19 f3 bd bc 10 2d 3d 3d e0 17 3e 9e d0 a1 3d
       -0.11870059 0.042252287 0.14831634 0.07901119
0000f0 f6 36 84 bc b6 2b 6f 3d da 36 9c 3d 3c cf 97 bd
       -0.016139489 0.058391295 0.076276496 -0.07412574
000100 7c f1 72 bd dd 22 d7 bd 47 67 8d 3d 2d 86 42 bc
       -0.05931233 -0.105046965 0.06904464 -0.01187281
000110 bb 1c 03 3b 82 80 81 3d 77 4d 93 bd 6f ad 04 bd
       0.0020006138 0.06323339 -0.071925096 -0.03239196
000120 92 c4 05 be eb 4c ca bc 7e a1 71 bd 1e 6a 50 3e
       -0.13063267 -0.02469488 -0.0589919 0.2035298
000130 92 fd a8 3e 3c ec 90 bb 6a 92 f2 3d 15 e8 8b 3e
       0.3300596 -0.0044226926 0.118443325 0.27325502
000140 9f 35 c0 3d 2b 6a b3 3c fc d6 c1 3d 9e 72 e4 bb
       0.093852274 0.02190121 0.09464833 -0.0069716712
000150 b7 e2 c3 bb d8 ae 4f bc 85 52 2c 3d 7b 4d 2d be
       -0.0059779542 -0.012675963 0.042070884 -0.16924088
000160 2e d1 2b be cb 51 2f be 66 ec f3 bc f2 6c 01 3b
       -0.16779014 -0.17121045 -0.02977581 0.0019748774
000170 63 c6 4e 3d 63 3a 21 3d 7d 4e d7 3c 24 12 5f 3d
       0.050482165 0.039362323 0.026282543 0.05446066
000180 a2 4a c8 bd 64 55 38 3e d3 f2 5a 3e 12 42 bf 3d
       -0.0977986 0.18001324 0.21381693 0.09338774
000190 63 7a a6 bb 0c da 6a 3d c9 f1 11 3e 8f 2a 2f be
       -0.0050805076 0.057336852 0.1425239 -0.17106079
0001a0 77 e6 20 3e ca bd 99 3c c8 9a 0b 3d 06 09 9b b7
       0.15712915 0.018767256 0.034083158 -1.8481642e-05
0001b0 6e 8c 3f bd 9f a7 98 3d f0 39 80 bd 70 3d dc 3d
       -0.046764784 0.07453846 -0.06261051 0.10753906
0001c0 ac 18 1e 3e 06 06 e6 bc f4 61 b2 bc 37 2d 64 bd
       0.15439099 -0.028079044 -0.021775223 -0.055707183
0001d0 44 93 c0 bc 3f 99 e6 3c 20 f4 97 bb 4a 87 2c 3e
       -0.023507722 0.028149245 -0.0046372563 0.16848484
0001e0 a0 cd 10 3d 09 6a 2c be 2d d6 8e bd 80 3f 2d bc
       0.03535235 -0.16837324 -0.069744445 -0.010574222
0001f0 31 2f 26 bb 62 3c 92 bd 35 c3 5e bd 6f 7f e9 bd
       -0.0025357718 -0.07140423 -0.054385383 -0.11401259
000200 e4 82 93 bd b1 9e e9 bd 54 a8 82 3d 2b e6 1e be
       -0.072027 -0.11407221 0.06379762 -0.1551749
000210 cb 74 f6 3d a4 3c 45 3e 3a 2a 0e 3e 31 c1 81 3d
       0.12033995 0.19261414 0.13883296 0.063356765
000220 91 b7 2b 3e 4e 8c 4e bc 6c 25 32 bd 87 da bb bd
       0.16769244 -0.012606693 -0.04349272 -0.0917254
000230 9d 36 80 3d d5 ad cc bc 25 9d c2 bd 00 1d 81 be
       0.06260417 -0.024985233 -0.09502629 -0.25217438
000240 3a cd dd bd 76 a5 45 ba 75 52 3a be 49 09 81 3d
       -0.108301595 -0.0007539609 -0.18195517 0.06300599
000250 9c e1 52 3e f9 07 57 be e5 f6 e8 bc ec 2b 73 be
       0.20593876 -0.20999135 -0.028438041 -0.23747224
000260 a8 9c 9a bc 47 c0 24 3e 48 59 80 bd 30 2c 55 bd
       -0.018873528 0.16088973 -0.06267029 -0.052044094
000270 a4 a0 f0 bd ed e7 b0 bd b9 f7 5b 3d f4 0b 9b 3e
       -0.1174939 -0.08637986 0.053703044 0.30282557
000280 80 36 b8 3d d6 42 ee 3d 3f 7a 13 3e a8 13 a4 bd
       0.0899477 0.11633842 0.14402102 -0.08011562
000290 ca 9c 17 3e 2a b5 81 be b8 07 db bd cf 9e 51 bd
       0.14805904 -0.2533353 -0.106948316 -0.051176842
0002a0 54 36 29 3e 7f 89 0a 3d c6 48 20 bd d7 50 93 bd
       0.16524631 0.033822533 -0.039131902 -0.07193153
0002b0 25 1a a1 3d aa cc 34 bc e0 00 ea 3d d7 0a 43 bd
       0.07866315 -0.011035124 0.11425948 -0.04761776
0002c0 50 51 de bb bf a9 f4 bc b8 07 e1 3d e8 71 f4 bb
       -0.0067845955 -0.029866097 0.109878 -0.0074598677
0002d0 c0 1f e0 bc c4 8e 0f be 83 d4 90 bd af 8e 59 3e
       -0.02735889 -0.14019305 -0.070717834 0.21245836
0002e0 7a 90 c7 3d 2b f6 1d bd 4b 13 1c be 69 05 48 3e
       0.097443536 -0.038564842 -0.15241735 0.19533314
0002f0 a7 8c 2c be dc 13 23 be 9b 6a 45 bd 37 fc 0a be
       -0.1685053 -0.15925545 -0.04819737 -0.13572775
000300 2f 43 e2 3b f0 57 7a be 0e 59 36 bd 11 d1 bb 3d
       0.0069049816 -0.24447608 -0.044518523 0.091707356
000310 ef 83 8c 3c a8 11 b3 bd 0e 03 fc 3d 3a e0 a6 3d
       0.017152755 -0.08743602 0.1230527 0.081482366
000320 d4 36 12 3e 29 73 bc 3c f3 c1 d4 3c aa 2f 37 3d
       0.14278728 0.023004131 0.025971388 0.04472319
000330 28 f0 25 3d 89 73 68 3e 58 b0 65 3e b4 4d 75 3d
       0.040512234 0.22700323 0.22430551 0.059888557
000340 05 0d eb bc 7b 44 3b be 6a 2c 0b be 11 37 3d be
       -0.028692732 -0.18287842 -0.13591161 -0.18478037
000350 43 b4 27 be 41 11 14 3e 76 89 1d be cd 48 aa 3d
       -0.16377358 0.14459707 -0.15384468 0.08314667
000360 02 42 05 bd f6 e3 a3 3d b2 94 ba 3c b1 e5 9a 3d
       -0.032533653 0.080024645 0.022775982 0.075633414
000370 d9 ca 63 be ee 34 a7 3d 8f bb fa bd 5d d6 40 3e
       -0.22245349 0.081643924 -0.12242805 0.18831773
000380 e4 98 86 3d 4e 29 d2 3c e2 04 34 3e d0 a3 02 3e
       0.0657213 0.025654461 0.17579988 0.12757802
000390 54 57 b6 3d 02 42 71 3e e6 6d c6 bd e1 fc d4 bd
       0.08903375 0.23560336 -0.0968893 -0.10399795
0003a0 0f 3f 09 3d 8e bf 0d 3e ca ae 95 bd 64 d1 30 be
       0.033507403 0.13842604 -0.07308729 -0.17267376
0003b0 dd 2a b7 bd 4c db 01 be 04 ba e1 bb bd 9e a7 3d
       -0.089437224 -0.12681311 -0.00688863 0.08184574
0003c0 2b 99 0b be 0b b7 59 bd 6f 2f e2 bd 10 dd 27 3e
       -0.13632648 -0.05315308 -0.110442035 0.16392922
0003d0 5e 6e b4 bd 83 a5 bf bc b5 22 94 3d 12 4f 7c bd
       -0.08810113 -0.023394352 0.07233182 -0.061598845
0003e0 87 03 58 bd 59 70 83 3d 0d e1 a7 3c 05 a4 f4 bd
       -0.05273774 0.06417913 0.020493055 -0.11945347
0003f0 c5 75 5e bd ad 70 1d 3e 3a 81 49 bd 32 3c 1a be
       -0.054311533 0.15375014 -0.049195506 -0.15062025

linear2.bias f4 [10]
000000 03 42 ae 3d 19 d0 79 bc 5a b1 0e be e3 3a 45 bd
       0.085086845 -0.015247368 -0.13934842 -0.048151862
000010 d3 b3 bc 3d d6 c2 b4 bc 01 d8 2b 3d f1 20 93 3d
       0.09213986 -0.022065561 0.041954044 0.071840174
000020 1c ca 19 3d 34 01 c5 bd
       0.037546262 -0.0961937
